Check at: 2020年 06月 12日 星期五 03:17:57 CST
GPU Free Memory List --> [5934, 519, 519, 519] MiB
GPU 0 was chosen.
__________________________________________________________________________________________________
Layer (type)                    Output Shape         Param #     Connected to                     
==================================================================================================
input_1 (InputLayer)            (None, 300, 1)       0                                            
__________________________________________________________________________________________________
separable_conv1d_1 (SeparableCo (None, 300, 16)      33          input_1[0][0]                    
__________________________________________________________________________________________________
batch_normalization_1 (BatchNor (None, 300, 16)      64          separable_conv1d_1[0][0]         
__________________________________________________________________________________________________
separable_conv1d_2 (SeparableCo (None, 300, 16)      320         batch_normalization_1[0][0]      
__________________________________________________________________________________________________
batch_normalization_2 (BatchNor (None, 300, 16)      64          separable_conv1d_2[0][0]         
__________________________________________________________________________________________________
dropout_1 (Dropout)             (None, 300, 16)      0           batch_normalization_2[0][0]      
__________________________________________________________________________________________________
separable_conv1d_3 (SeparableCo (None, 300, 16)      320         dropout_1[0][0]                  
__________________________________________________________________________________________________
batch_normalization_3 (BatchNor (None, 300, 16)      64          separable_conv1d_3[0][0]         
__________________________________________________________________________________________________
add_1 (Add)                     (None, 300, 16)      0           batch_normalization_3[0][0]      
                                                                 batch_normalization_1[0][0]      
__________________________________________________________________________________________________
separable_conv1d_4 (SeparableCo (None, 300, 16)      320         add_1[0][0]                      
__________________________________________________________________________________________________
batch_normalization_4 (BatchNor (None, 300, 16)      64          separable_conv1d_4[0][0]         
__________________________________________________________________________________________________
dropout_2 (Dropout)             (None, 300, 16)      0           batch_normalization_4[0][0]      
__________________________________________________________________________________________________
separable_conv1d_5 (SeparableCo (None, 300, 16)      320         dropout_2[0][0]                  
__________________________________________________________________________________________________
batch_normalization_5 (BatchNor (None, 300, 16)      64          separable_conv1d_5[0][0]         
__________________________________________________________________________________________________
add_2 (Add)                     (None, 300, 16)      0           batch_normalization_5[0][0]      
                                                                 add_1[0][0]                      
__________________________________________________________________________________________________
separable_conv1d_6 (SeparableCo (None, 300, 16)      320         add_2[0][0]                      
__________________________________________________________________________________________________
batch_normalization_6 (BatchNor (None, 300, 16)      64          separable_conv1d_6[0][0]         
__________________________________________________________________________________________________
dropout_3 (Dropout)             (None, 300, 16)      0           batch_normalization_6[0][0]      
__________________________________________________________________________________________________
separable_conv1d_7 (SeparableCo (None, 300, 16)      320         dropout_3[0][0]                  
__________________________________________________________________________________________________
batch_normalization_7 (BatchNor (None, 300, 16)      64          separable_conv1d_7[0][0]         
__________________________________________________________________________________________________
add_3 (Add)                     (None, 300, 16)      0           batch_normalization_7[0][0]      
                                                                 add_2[0][0]                      
__________________________________________________________________________________________________
separable_conv1d_8 (SeparableCo (None, 300, 16)      320         add_3[0][0]                      
__________________________________________________________________________________________________
batch_normalization_8 (BatchNor (None, 300, 16)      64          separable_conv1d_8[0][0]         
__________________________________________________________________________________________________
dropout_4 (Dropout)             (None, 300, 16)      0           batch_normalization_8[0][0]      
__________________________________________________________________________________________________
separable_conv1d_9 (SeparableCo (None, 300, 16)      320         dropout_4[0][0]                  
__________________________________________________________________________________________________
batch_normalization_9 (BatchNor (None, 300, 16)      64          separable_conv1d_9[0][0]         
__________________________________________________________________________________________________
add_4 (Add)                     (None, 300, 16)      0           batch_normalization_9[0][0]      
                                                                 add_3[0][0]                      
__________________________________________________________________________________________________
separable_conv1d_10 (SeparableC (None, 300, 16)      320         add_4[0][0]                      
__________________________________________________________________________________________________
batch_normalization_10 (BatchNo (None, 300, 16)      64          separable_conv1d_10[0][0]        
__________________________________________________________________________________________________
dropout_5 (Dropout)             (None, 300, 16)      0           batch_normalization_10[0][0]     
__________________________________________________________________________________________________
separable_conv1d_11 (SeparableC (None, 300, 16)      320         dropout_5[0][0]                  
__________________________________________________________________________________________________
batch_normalization_11 (BatchNo (None, 300, 16)      64          separable_conv1d_11[0][0]        
__________________________________________________________________________________________________
add_5 (Add)                     (None, 300, 16)      0           batch_normalization_11[0][0]     
                                                                 add_4[0][0]                      
__________________________________________________________________________________________________
separable_conv1d_12 (SeparableC (None, 300, 16)      320         add_5[0][0]                      
__________________________________________________________________________________________________
batch_normalization_12 (BatchNo (None, 300, 16)      64          separable_conv1d_12[0][0]        
__________________________________________________________________________________________________
dropout_6 (Dropout)             (None, 300, 16)      0           batch_normalization_12[0][0]     
__________________________________________________________________________________________________
separable_conv1d_13 (SeparableC (None, 300, 16)      320         dropout_6[0][0]                  
__________________________________________________________________________________________________
batch_normalization_13 (BatchNo (None, 300, 16)      64          separable_conv1d_13[0][0]        
__________________________________________________________________________________________________
add_6 (Add)                     (None, 300, 16)      0           batch_normalization_13[0][0]     
                                                                 add_5[0][0]                      
__________________________________________________________________________________________________
separable_conv1d_14 (SeparableC (None, 300, 16)      320         add_6[0][0]                      
__________________________________________________________________________________________________
batch_normalization_14 (BatchNo (None, 300, 16)      64          separable_conv1d_14[0][0]        
__________________________________________________________________________________________________
dropout_7 (Dropout)             (None, 300, 16)      0           batch_normalization_14[0][0]     
__________________________________________________________________________________________________
separable_conv1d_15 (SeparableC (None, 300, 16)      320         dropout_7[0][0]                  
__________________________________________________________________________________________________
batch_normalization_15 (BatchNo (None, 300, 16)      64          separable_conv1d_15[0][0]        
__________________________________________________________________________________________________
add_7 (Add)                     (None, 300, 16)      0           batch_normalization_15[0][0]     
                                                                 add_6[0][0]                      
__________________________________________________________________________________________________
separable_conv1d_16 (SeparableC (None, 300, 16)      320         add_7[0][0]                      
__________________________________________________________________________________________________
batch_normalization_16 (BatchNo (None, 300, 16)      64          separable_conv1d_16[0][0]        
__________________________________________________________________________________________________
dropout_8 (Dropout)             (None, 300, 16)      0           batch_normalization_16[0][0]     
__________________________________________________________________________________________________
separable_conv1d_17 (SeparableC (None, 300, 16)      320         dropout_8[0][0]                  
__________________________________________________________________________________________________
batch_normalization_17 (BatchNo (None, 300, 16)      64          separable_conv1d_17[0][0]        
__________________________________________________________________________________________________
add_8 (Add)                     (None, 300, 16)      0           batch_normalization_17[0][0]     
                                                                 add_7[0][0]                      
__________________________________________________________________________________________________
separable_conv1d_18 (SeparableC (None, 300, 16)      320         add_8[0][0]                      
__________________________________________________________________________________________________
batch_normalization_18 (BatchNo (None, 300, 16)      64          separable_conv1d_18[0][0]        
__________________________________________________________________________________________________
dropout_9 (Dropout)             (None, 300, 16)      0           batch_normalization_18[0][0]     
__________________________________________________________________________________________________
separable_conv1d_19 (SeparableC (None, 300, 16)      320         dropout_9[0][0]                  
__________________________________________________________________________________________________
batch_normalization_19 (BatchNo (None, 300, 16)      64          separable_conv1d_19[0][0]        
__________________________________________________________________________________________________
add_9 (Add)                     (None, 300, 16)      0           batch_normalization_19[0][0]     
                                                                 add_8[0][0]                      
__________________________________________________________________________________________________
separable_conv1d_20 (SeparableC (None, 300, 16)      320         add_9[0][0]                      
__________________________________________________________________________________________________
batch_normalization_20 (BatchNo (None, 300, 16)      64          separable_conv1d_20[0][0]        
__________________________________________________________________________________________________
dropout_10 (Dropout)            (None, 300, 16)      0           batch_normalization_20[0][0]     
__________________________________________________________________________________________________
separable_conv1d_21 (SeparableC (None, 300, 16)      320         dropout_10[0][0]                 
__________________________________________________________________________________________________
batch_normalization_21 (BatchNo (None, 300, 16)      64          separable_conv1d_21[0][0]        
__________________________________________________________________________________________________
add_10 (Add)                    (None, 300, 16)      0           batch_normalization_21[0][0]     
                                                                 add_9[0][0]                      
__________________________________________________________________________________________________
separable_conv1d_22 (SeparableC (None, 300, 16)      320         add_10[0][0]                     
__________________________________________________________________________________________________
batch_normalization_22 (BatchNo (None, 300, 16)      64          separable_conv1d_22[0][0]        
__________________________________________________________________________________________________
dropout_11 (Dropout)            (None, 300, 16)      0           batch_normalization_22[0][0]     
__________________________________________________________________________________________________
separable_conv1d_23 (SeparableC (None, 300, 16)      320         dropout_11[0][0]                 
__________________________________________________________________________________________________
batch_normalization_23 (BatchNo (None, 300, 16)      64          separable_conv1d_23[0][0]        
__________________________________________________________________________________________________
add_11 (Add)                    (None, 300, 16)      0           batch_normalization_23[0][0]     
                                                                 add_10[0][0]                     
__________________________________________________________________________________________________
separable_conv1d_24 (SeparableC (None, 300, 16)      320         add_11[0][0]                     
__________________________________________________________________________________________________
batch_normalization_24 (BatchNo (None, 300, 16)      64          separable_conv1d_24[0][0]        
__________________________________________________________________________________________________
dropout_12 (Dropout)            (None, 300, 16)      0           batch_normalization_24[0][0]     
__________________________________________________________________________________________________
separable_conv1d_25 (SeparableC (None, 300, 16)      320         dropout_12[0][0]                 
__________________________________________________________________________________________________
batch_normalization_25 (BatchNo (None, 300, 16)      64          separable_conv1d_25[0][0]        
__________________________________________________________________________________________________
add_12 (Add)                    (None, 300, 16)      0           batch_normalization_25[0][0]     
                                                                 add_11[0][0]                     
__________________________________________________________________________________________________
separable_conv1d_26 (SeparableC (None, 300, 16)      320         add_12[0][0]                     
__________________________________________________________________________________________________
batch_normalization_26 (BatchNo (None, 300, 16)      64          separable_conv1d_26[0][0]        
__________________________________________________________________________________________________
dropout_13 (Dropout)            (None, 300, 16)      0           batch_normalization_26[0][0]     
__________________________________________________________________________________________________
separable_conv1d_27 (SeparableC (None, 300, 16)      320         dropout_13[0][0]                 
__________________________________________________________________________________________________
batch_normalization_27 (BatchNo (None, 300, 16)      64          separable_conv1d_27[0][0]        
__________________________________________________________________________________________________
add_13 (Add)                    (None, 300, 16)      0           batch_normalization_27[0][0]     
                                                                 add_12[0][0]                     
__________________________________________________________________________________________________
separable_conv1d_28 (SeparableC (None, 300, 16)      320         add_13[0][0]                     
__________________________________________________________________________________________________
batch_normalization_28 (BatchNo (None, 300, 16)      64          separable_conv1d_28[0][0]        
__________________________________________________________________________________________________
dropout_14 (Dropout)            (None, 300, 16)      0           batch_normalization_28[0][0]     
__________________________________________________________________________________________________
separable_conv1d_29 (SeparableC (None, 300, 16)      320         dropout_14[0][0]                 
__________________________________________________________________________________________________
batch_normalization_29 (BatchNo (None, 300, 16)      64          separable_conv1d_29[0][0]        
__________________________________________________________________________________________________
add_14 (Add)                    (None, 300, 16)      0           batch_normalization_29[0][0]     
                                                                 add_13[0][0]                     
__________________________________________________________________________________________________
separable_conv1d_30 (SeparableC (None, 300, 16)      320         add_14[0][0]                     
__________________________________________________________________________________________________
batch_normalization_30 (BatchNo (None, 300, 16)      64          separable_conv1d_30[0][0]        
__________________________________________________________________________________________________
dropout_15 (Dropout)            (None, 300, 16)      0           batch_normalization_30[0][0]     
__________________________________________________________________________________________________
separable_conv1d_31 (SeparableC (None, 300, 16)      320         dropout_15[0][0]                 
__________________________________________________________________________________________________
batch_normalization_31 (BatchNo (None, 300, 16)      64          separable_conv1d_31[0][0]        
__________________________________________________________________________________________________
add_15 (Add)                    (None, 300, 16)      0           batch_normalization_31[0][0]     
                                                                 add_14[0][0]                     
__________________________________________________________________________________________________
separable_conv1d_32 (SeparableC (None, 300, 16)      320         add_15[0][0]                     
__________________________________________________________________________________________________
batch_normalization_32 (BatchNo (None, 300, 16)      64          separable_conv1d_32[0][0]        
__________________________________________________________________________________________________
dropout_16 (Dropout)            (None, 300, 16)      0           batch_normalization_32[0][0]     
__________________________________________________________________________________________________
separable_conv1d_33 (SeparableC (None, 300, 16)      320         dropout_16[0][0]                 
__________________________________________________________________________________________________
batch_normalization_33 (BatchNo (None, 300, 16)      64          separable_conv1d_33[0][0]        
__________________________________________________________________________________________________
add_16 (Add)                    (None, 300, 16)      0           batch_normalization_33[0][0]     
                                                                 add_15[0][0]                     
__________________________________________________________________________________________________
separable_conv1d_34 (SeparableC (None, 300, 16)      320         add_16[0][0]                     
__________________________________________________________________________________________________
batch_normalization_34 (BatchNo (None, 300, 16)      64          separable_conv1d_34[0][0]        
__________________________________________________________________________________________________
dropout_17 (Dropout)            (None, 300, 16)      0           batch_normalization_34[0][0]     
__________________________________________________________________________________________________
max_pooling1d_1 (MaxPooling1D)  (None, 150, 16)      0           dropout_17[0][0]                 
__________________________________________________________________________________________________
separable_conv1d_35 (SeparableC (None, 150, 16)      320         add_16[0][0]                     
__________________________________________________________________________________________________
add_17 (Add)                    (None, 150, 16)      0           max_pooling1d_1[0][0]            
                                                                 separable_conv1d_35[0][0]        
__________________________________________________________________________________________________
separable_conv1d_36 (SeparableC (None, 150, 16)      320         add_17[0][0]                     
__________________________________________________________________________________________________
batch_normalization_35 (BatchNo (None, 150, 16)      64          separable_conv1d_36[0][0]        
__________________________________________________________________________________________________
dropout_18 (Dropout)            (None, 150, 16)      0           batch_normalization_35[0][0]     
__________________________________________________________________________________________________
max_pooling1d_2 (MaxPooling1D)  (None, 75, 16)       0           dropout_18[0][0]                 
__________________________________________________________________________________________________
separable_conv1d_37 (SeparableC (None, 75, 16)       320         add_17[0][0]                     
__________________________________________________________________________________________________
add_18 (Add)                    (None, 75, 16)       0           max_pooling1d_2[0][0]            
                                                                 separable_conv1d_37[0][0]        
__________________________________________________________________________________________________
separable_conv1d_38 (SeparableC (None, 75, 16)       320         add_18[0][0]                     
__________________________________________________________________________________________________
batch_normalization_36 (BatchNo (None, 75, 16)       64          separable_conv1d_38[0][0]        
__________________________________________________________________________________________________
dropout_19 (Dropout)            (None, 75, 16)       0           batch_normalization_36[0][0]     
__________________________________________________________________________________________________Check at: 2020年 06月 12日 星期五 03:28:25 CST

max_pooling1d_3 (MaxPooling1D)  (None, 38, 16)       0           dropout_19[0][0]                 
__________________________________________________________________________________________________
separable_conv1d_39 (SeparableC (None, 38, 16)       320         add_18[0][0]                     
__________________________________________________________________________________________________
add_19 (Add)                    (None, 38, 16)       0           max_pooling1d_3[0][0]            
                                                                 separable_conv1d_39[0][0]        
__________________________________________________________________________________________________
separable_conv1d_40 (SeparableC (None, 38, 16)       320         add_19[0][0]                     
__________________________________________________________________________________________________
batch_normalization_37 (BatchNo (None, 38, 16)       64          separable_conv1d_40[0][0]        
__________________________________________________________________________________________________
dropout_20 (Dropout)            (None, 38, 16)       0           batch_normalization_37[0][0]     
__________________________________________________________________________________________________
max_pooling1d_4 (MaxPooling1D)  (None, 19, 16)       0           dropout_20[0][0]                 
__________________________________________________________________________________________________
separable_conv1d_41 (SeparableC (None, 19, 16)       320         add_19[0][0]                     
__________________________________________________________________________________________________
add_20 (Add)                    (None, 19, 16)       0           max_pooling1d_4[0][0]            
                                                                 separable_conv1d_41[0][0]        
__________________________________________________________________________________________________
separable_conv1d_42 (SeparableC (None, 19, 16)       320         add_20[0][0]                     
__________________________________________________________________________________________________
batch_normalization_38 (BatchNo (None, 19, 16)       64          separable_conv1d_42[0][0]        
__________________________________________________________________________________________________
dropout_21 (Dropout)            (None, 19, 16)       0           batch_normalization_38[0][0]     
__________________________________________________________________________________________________
max_pooling1d_5 (MaxPooling1D)  (None, 10, 16)       0           dropout_21[0][0]                 
__________________________________________________________________________________________________
separable_conv1d_43 (SeparableC (None, 10, 16)       320         add_20[0][0]                     
__________________________________________________________________________________________________
add_21 (Add)                    (None, 10, 16)       0           max_pooling1d_5[0][0]            
                                                                 separable_conv1d_43[0][0]        
__________________________________________________________________________________________________
separable_conv1d_44 (SeparableC (None, 10, 16)       320         add_21[0][0]                     
__________________________________________________________________________________________________
batch_normalization_39 (BatchNo (None, 10, 16)       64          separable_conv1d_44[0][0]        
__________________________________________________________________________________________________
dropout_22 (Dropout)            (None, 10, 16)       0           batch_normalization_39[0][0]     
__________________________________________________________________________________________________
max_pooling1d_6 (MaxPooling1D)  (None, 5, 16)        0           dropout_22[0][0]                 
__________________________________________________________________________________________________
flatten_1 (Flatten)             (None, 80)           0           max_pooling1d_6[0][0]            
__________________________________________________________________________________________________
dense_1 (Dense)                 (None, 128)          10368       flatten_1[0][0]                  
__________________________________________________________________________________________________
batch_normalization_40 (BatchNo (None, 128)          512         dense_1[0][0]                    
__________________________________________________________________________________________________
dropout_23 (Dropout)            (None, 128)          0           batch_normalization_40[0][0]     
__________________________________________________________________________________________________
dense_2 (Dense)                 (None, 10)           1290        dropout_23[0][0]                 
==================================================================================================
Total params: 28,459
Trainable params: 26,955
Non-trainable params: 1,504
__________________________________________________________________________________________________

mode_padding_epochs_200_lr_0.1
val_acc: 0.5296220636952277
GPU Free Memory List --> [3113, 519, 519, 519] MiB
GPU 0 was chosen.
__________________________________________________________________________________________________
Layer (type)                    Output Shape         Param #     Connected to                     
==================================================================================================
input_2 (InputLayer)            (None, 300, 1)       0                                            
__________________________________________________________________________________________________
separable_conv1d_46 (SeparableC (None, 300, 16)      33          input_2[0][0]                    
__________________________________________________________________________________________________
batch_normalization_41 (BatchNo (None, 300, 16)      64          separable_conv1d_46[0][0]        
__________________________________________________________________________________________________
separable_conv1d_47 (SeparableC (None, 300, 16)      320         batch_normalization_41[0][0]     
__________________________________________________________________________________________________
batch_normalization_42 (BatchNo (None, 300, 16)      64          separable_conv1d_47[0][0]        
__________________________________________________________________________________________________
dropout_24 (Dropout)            (None, 300, 16)      0           batch_normalization_42[0][0]     
__________________________________________________________________________________________________
separable_conv1d_48 (SeparableC (None, 300, 16)      320         dropout_24[0][0]                 
__________________________________________________________________________________________________
batch_normalization_43 (BatchNo (None, 300, 16)      64          separable_conv1d_48[0][0]        
__________________________________________________________________________________________________
add_23 (Add)                    (None, 300, 16)      0           batch_normalization_43[0][0]     
                                                                 batch_normalization_41[0][0]     
__________________________________________________________________________________________________
separable_conv1d_49 (SeparableC (None, 300, 16)      320         add_23[0][0]                     
__________________________________________________________________________________________________
batch_normalization_44 (BatchNo (None, 300, 16)      64          separable_conv1d_49[0][0]        
__________________________________________________________________________________________________
dropout_25 (Dropout)            (None, 300, 16)      0           batch_normalization_44[0][0]     
__________________________________________________________________________________________________
separable_conv1d_50 (SeparableC (None, 300, 16)      320         dropout_25[0][0]                 
__________________________________________________________________________________________________
batch_normalization_45 (BatchNo (None, 300, 16)      64          separable_conv1d_50[0][0]        
__________________________________________________________________________________________________
add_24 (Add)                    (None, 300, 16)      0           batch_normalization_45[0][0]     
                                                                 add_23[0][0]                     
__________________________________________________________________________________________________
separable_conv1d_51 (SeparableC (None, 300, 16)      320         add_24[0][0]                     
__________________________________________________________________________________________________
batch_normalization_46 (BatchNo (None, 300, 16)      64          separable_conv1d_51[0][0]        
__________________________________________________________________________________________________
dropout_26 (Dropout)            (None, 300, 16)      0           batch_normalization_46[0][0]     
__________________________________________________________________________________________________
separable_conv1d_52 (SeparableC (None, 300, 16)      320         dropout_26[0][0]                 
__________________________________________________________________________________________________
batch_normalization_47 (BatchNo (None, 300, 16)      64          separable_conv1d_52[0][0]        
__________________________________________________________________________________________________
add_25 (Add)                    (None, 300, 16)      0           batch_normalization_47[0][0]     
                                                                 add_24[0][0]                     
__________________________________________________________________________________________________
separable_conv1d_53 (SeparableC (None, 300, 16)      320         add_25[0][0]                     
__________________________________________________________________________________________________
batch_normalization_48 (BatchNo (None, 300, 16)      64          separable_conv1d_53[0][0]        
__________________________________________________________________________________________________
dropout_27 (Dropout)            (None, 300, 16)      0           batch_normalization_48[0][0]     
__________________________________________________________________________________________________
separable_conv1d_54 (SeparableC (None, 300, 16)      320         dropout_27[0][0]                 
__________________________________________________________________________________________________
batch_normalization_49 (BatchNo (None, 300, 16)      64          separable_conv1d_54[0][0]        
__________________________________________________________________________________________________
add_26 (Add)                    (None, 300, 16)      0           batch_normalization_49[0][0]     
                                                                 add_25[0][0]                     
__________________________________________________________________________________________________
separable_conv1d_55 (SeparableC (None, 300, 16)      320         add_26[0][0]                     
__________________________________________________________________________________________________
batch_normalization_50 (BatchNo (None, 300, 16)      64          separable_conv1d_55[0][0]        
__________________________________________________________________________________________________
dropout_28 (Dropout)            (None, 300, 16)      0           batch_normalization_50[0][0]     
__________________________________________________________________________________________________
separable_conv1d_56 (SeparableC (None, 300, 16)      320         dropout_28[0][0]                 
__________________________________________________________________________________________________
batch_normalization_51 (BatchNo (None, 300, 16)      64          separable_conv1d_56[0][0]        
__________________________________________________________________________________________________
add_27 (Add)                    (None, 300, 16)      0           batch_normalization_51[0][0]     
                                                                 add_26[0][0]                     
__________________________________________________________________________________________________
separable_conv1d_57 (SeparableC (None, 300, 16)      320         add_27[0][0]                     
__________________________________________________________________________________________________
batch_normalization_52 (BatchNo (None, 300, 16)      64          separable_conv1d_57[0][0]        
__________________________________________________________________________________________________
dropout_29 (Dropout)            (None, 300, 16)      0           batch_normalization_52[0][0]     
__________________________________________________________________________________________________
separable_conv1d_58 (SeparableC (None, 300, 16)      320         dropout_29[0][0]                 
__________________________________________________________________________________________________
batch_normalization_53 (BatchNo (None, 300, 16)      64          separable_conv1d_58[0][0]        
__________________________________________________________________________________________________
add_28 (Add)                    (None, 300, 16)      0           batch_normalization_53[0][0]     
                                                                 add_27[0][0]                     
__________________________________________________________________________________________________
separable_conv1d_59 (SeparableC (None, 300, 16)      320         add_28[0][0]                     
__________________________________________________________________________________________________
batch_normalization_54 (BatchNo (None, 300, 16)      64          separable_conv1d_59[0][0]        
__________________________________________________________________________________________________
dropout_30 (Dropout)            (None, 300, 16)      0           batch_normalization_54[0][0]     
__________________________________________________________________________________________________
separable_conv1d_60 (SeparableC (None, 300, 16)      320         dropout_30[0][0]                 
__________________________________________________________________________________________________
batch_normalization_55 (BatchNo (None, 300, 16)      64          separable_conv1d_60[0][0]        
__________________________________________________________________________________________________
add_29 (Add)                    (None, 300, 16)      0           batch_normalization_55[0][0]     
                                                                 add_28[0][0]                     
__________________________________________________________________________________________________
separable_conv1d_61 (SeparableC (None, 300, 16)      320         add_29[0][0]                     
__________________________________________________________________________________________________
batch_normalization_56 (BatchNo (None, 300, 16)      64          separable_conv1d_61[0][0]        
__________________________________________________________________________________________________
dropout_31 (Dropout)            (None, 300, 16)      0           batch_normalization_56[0][0]     
__________________________________________________________________________________________________
separable_conv1d_62 (SeparableC (None, 300, 16)      320         dropout_31[0][0]                 
__________________________________________________________________________________________________
batch_normalization_57 (BatchNo (None, 300, 16)      64          separable_conv1d_62[0][0]        
__________________________________________________________________________________________________
add_30 (Add)                    (None, 300, 16)      0           batch_normalization_57[0][0]     
                                                                 add_29[0][0]                     
__________________________________________________________________________________________________
separable_conv1d_63 (SeparableC (None, 300, 16)      320         add_30[0][0]                     
__________________________________________________________________________________________________
batch_normalization_58 (BatchNo (None, 300, 16)      64          separable_conv1d_63[0][0]        
__________________________________________________________________________________________________
dropout_32 (Dropout)            (None, 300, 16)      0           batch_normalization_58[0][0]     
__________________________________________________________________________________________________
separable_conv1d_64 (SeparableC (None, 300, 16)      320         dropout_32[0][0]                 
__________________________________________________________________________________________________
batch_normalization_59 (BatchNo (None, 300, 16)      64          separable_conv1d_64[0][0]        
__________________________________________________________________________________________________
add_31 (Add)                    (None, 300, 16)      0           batch_normalization_59[0][0]     
                                                                 add_30[0][0]                     
__________________________________________________________________________________________________
separable_conv1d_65 (SeparableC (None, 300, 16)      320         add_31[0][0]                     
__________________________________________________________________________________________________
batch_normalization_60 (BatchNo (None, 300, 16)      64          separable_conv1d_65[0][0]        
__________________________________________________________________________________________________
dropout_33 (Dropout)            (None, 300, 16)      0           batch_normalization_60[0][0]     
__________________________________________________________________________________________________
separable_conv1d_66 (SeparableC (None, 300, 16)      320         dropout_33[0][0]                 
__________________________________________________________________________________________________
batch_normalization_61 (BatchNo (None, 300, 16)      64          separable_conv1d_66[0][0]        
__________________________________________________________________________________________________
add_32 (Add)                    (None, 300, 16)      0           batch_normalization_61[0][0]     
                                                                 add_31[0][0]                     
__________________________________________________________________________________________________
separable_conv1d_67 (SeparableC (None, 300, 16)      320         add_32[0][0]                     
__________________________________________________________________________________________________
batch_normalization_62 (BatchNo (None, 300, 16)      64          separable_conv1d_67[0][0]        
__________________________________________________________________________________________________
dropout_34 (Dropout)            (None, 300, 16)      0           batch_normalization_62[0][0]     
__________________________________________________________________________________________________
separable_conv1d_68 (SeparableC (None, 300, 16)      320         dropout_34[0][0]                 
__________________________________________________________________________________________________
batch_normalization_63 (BatchNo (None, 300, 16)      64          separable_conv1d_68[0][0]        
__________________________________________________________________________________________________
add_33 (Add)                    (None, 300, 16)      0           batch_normalization_63[0][0]     
                                                                 add_32[0][0]                     
__________________________________________________________________________________________________
separable_conv1d_69 (SeparableC (None, 300, 16)      320         add_33[0][0]                     
__________________________________________________________________________________________________
batch_normalization_64 (BatchNo (None, 300, 16)      64          separable_conv1d_69[0][0]        
__________________________________________________________________________________________________
dropout_35 (Dropout)            (None, 300, 16)      0           batch_normalization_64[0][0]     
__________________________________________________________________________________________________
separable_conv1d_70 (SeparableC (None, 300, 16)      320         dropout_35[0][0]                 
__________________________________________________________________________________________________
batch_normalization_65 (BatchNo (None, 300, 16)      64          separable_conv1d_70[0][0]        
__________________________________________________________________________________________________
add_34 (Add)                    (None, 300, 16)      0           batch_normalization_65[0][0]     
                                                                 add_33[0][0]                     
__________________________________________________________________________________________________
separable_conv1d_71 (SeparableC (None, 300, 16)      320         add_34[0][0]                     
__________________________________________________________________________________________________
batch_normalization_66 (BatchNo (None, 300, 16)      64          separable_conv1d_71[0][0]        
__________________________________________________________________________________________________
dropout_36 (Dropout)            (None, 300, 16)      0           batch_normalization_66[0][0]     
__________________________________________________________________________________________________
separable_conv1d_72 (SeparableC (None, 300, 16)      320         dropout_36[0][0]                 
__________________________________________________________________________________________________
batch_normalization_67 (BatchNo (None, 300, 16)      64          separable_conv1d_72[0][0]        
__________________________________________________________________________________________________
add_35 (Add)                    (None, 300, 16)      0           batch_normalization_67[0][0]     
                                                                 add_34[0][0]                     
__________________________________________________________________________________________________
separable_conv1d_73 (SeparableC (None, 300, 16)      320         add_35[0][0]                     
__________________________________________________________________________________________________
batch_normalization_68 (BatchNo (None, 300, 16)      64          separable_conv1d_73[0][0]        
__________________________________________________________________________________________________
dropout_37 (Dropout)            (None, 300, 16)      0           batch_normalization_68[0][0]     
__________________________________________________________________________________________________
separable_conv1d_74 (SeparableC (None, 300, 16)      320         dropout_37[0][0]                 
__________________________________________________________________________________________________
batch_normalization_69 (BatchNo (None, 300, 16)      64          separable_conv1d_74[0][0]        
__________________________________________________________________________________________________
add_36 (Add)                    (None, 300, 16)      0           batch_normalization_69[0][0]     
                                                                 add_35[0][0]                     
__________________________________________________________________________________________________
separable_conv1d_75 (SeparableC (None, 300, 16)      320         add_36[0][0]                     
__________________________________________________________________________________________________
batch_normalization_70 (BatchNo (None, 300, 16)      64          separable_conv1d_75[0][0]        
__________________________________________________________________________________________________
dropout_38 (Dropout)            (None, 300, 16)      0           batch_normalization_70[0][0]     
__________________________________________________________________________________________________
separable_conv1d_76 (SeparableC (None, 300, 16)      320         dropout_38[0][0]                 
__________________________________________________________________________________________________
batch_normalization_71 (BatchNo (None, 300, 16)      64          separable_conv1d_76[0][0]        
__________________________________________________________________________________________________
add_37 (Add)                    (None, 300, 16)      0           batch_normalization_71[0][0]     
                                                                 add_36[0][0]                     
__________________________________________________________________________________________________
separable_conv1d_77 (SeparableC (None, 300, 16)      320         add_37[0][0]                     
__________________________________________________________________________________________________
batch_normalization_72 (BatchNo (None, 300, 16)      64          separable_conv1d_77[0][0]        
__________________________________________________________________________________________________
dropout_39 (Dropout)            (None, 300, 16)      0           batch_normalization_72[0][0]     
__________________________________________________________________________________________________
separable_conv1d_78 (SeparableC (None, 300, 16)      320         dropout_39[0][0]                 
__________________________________________________________________________________________________
batch_normalization_73 (BatchNo (None, 300, 16)      64          separable_conv1d_78[0][0]        
__________________________________________________________________________________________________
add_38 (Add)                    (None, 300, 16)      0           batch_normalization_73[0][0]     
                                                                 add_37[0][0]                     
__________________________________________________________________________________________________
separable_conv1d_79 (SeparableC (None, 300, 16)      320         add_38[0][0]                     
__________________________________________________________________________________________________
batch_normalization_74 (BatchNo (None, 300, 16)      64          separable_conv1d_79[0][0]        
__________________________________________________________________________________________________
dropout_40 (Dropout)            (None, 300, 16)      0           batch_normalization_74[0][0]     
__________________________________________________________________________________________________
max_pooling1d_7 (MaxPooling1D)  (None, 150, 16)      0           dropout_40[0][0]                 
__________________________________________________________________________________________________
separable_conv1d_80 (SeparableC (None, 150, 16)      320         add_38[0][0]                     
__________________________________________________________________________________________________
add_39 (Add)                    (None, 150, 16)      0           max_pooling1d_7[0][0]            
                                                                 separable_conv1d_80[0][0]        
__________________________________________________________________________________________________
separable_conv1d_81 (SeparableC (None, 150, 16)      320         add_39[0][0]                     
__________________________________________________________________________________________________
batch_normalization_75 (BatchNo (None, 150, 16)      64          separable_conv1d_81[0][0]        
__________________________________________________________________________________________________
dropout_41 (Dropout)            (None, 150, 16)      0           batch_normalization_75[0][0]     
__________________________________________________________________________________________________
max_pooling1d_8 (MaxPooling1D)  (None, 75, 16)       0           dropout_41[0][0]                 
__________________________________________________________________________________________________
separable_conv1d_82 (SeparableC (None, 75, 16)       320         add_39[0][0]                     
__________________________________________________________________________________________________
add_40 (Add)                    (None, 75, 16)       0           max_pooling1d_8[0][0]            
                                                                 separable_conv1d_82[0][0]        
__________________________________________________________________________________________________
separable_conv1d_83 (SeparableC (None, 75, 16)       320         add_40[0][0]                     
__________________________________________________________________________________________________
batch_normalization_76 (BatchNo (None, 75, 16)       64          separable_conv1d_83[0][0]        
__________________________________________________________________________________________________
dropout_42 (Dropout)            (None, 75, 16)       0           batch_normalization_76[0][0]     
__________________________________________________________________________________________________
max_pooling1d_9 (MaxPooling1D)  (None, 38, 16)       0           dropout_42[0][0]                 
__________________________________________________________________________________________________
separable_conv1d_84 (SeparableC (None, 38, 16)       320         add_40[0][0]                     
__________________________________________________________________________________________________
add_41 (Add)                    (None, 38, 16)       0           max_pooling1d_9[0][0]            
                                                                 separable_conv1d_84[0][0]        
__________________________________________________________________________________________________
separable_conv1d_85 (SeparableC (None, 38, 16)       320         add_41[0][0]                     
__________________________________________________________________________________________________
batch_normalization_77 (BatchNo (None, 38, 16)       64          separable_conv1d_85[0][0]        
__________________________________________________________________________________________________
dropout_43 (Dropout)            (None, 38, 16)       0           batch_normalization_77[0][0]     
__________________________________________________________________________________________________
max_pooling1d_10 (MaxPooling1D) (None, 19, 16)       0           dropout_43[0][0]                 
__________________________________________________________________________________________________
separable_conv1d_86 (SeparableC (None, 19, 16)       320         add_41[0][0]                     
__________________________________________________________________________________________________
add_42 (Add)                    (None, 19, 16)       0           max_pooling1d_10[0][0]           
                                                                 separable_conv1d_86[0][0]        
__________________________________________________________________________________________________
separable_conv1d_87 (SeparableC (None, 19, 16)       320         add_42[0][0]                     
__________________________________________________________________________________________________
batch_normalization_78 (BatchNo (None, 19, 16)       64          separable_conv1d_87[0][0]        
__________________________________________________________________________________________________
dropout_44 (Dropout)            (None, 19, 16)       0           batch_normalization_78[0][0]     
__________________________________________________________________________________________________
max_pooling1d_11 (MaxPooling1D) (None, 10, 16)       0           dropout_44[0][0]                 
__________________________________________________________________________________________________
separable_conv1d_88 (SeparableC (None, 10, 16)       320         add_42[0][0]                     Check at: 2020年 06月 12日 星期五 03:46:29 CST

__________________________________________________________________________________________________
add_43 (Add)                    (None, 10, 16)       0           max_pooling1d_11[0][0]           
                                                                 separable_conv1d_88[0][0]        
__________________________________________________________________________________________________
separable_conv1d_89 (SeparableC (None, 10, 16)       320         add_43[0][0]                     
__________________________________________________________________________________________________
batch_normalization_79 (BatchNo (None, 10, 16)       64          separable_conv1d_89[0][0]        
__________________________________________________________________________________________________
dropout_45 (Dropout)            (None, 10, 16)       0           batch_normalization_79[0][0]     
__________________________________________________________________________________________________
max_pooling1d_12 (MaxPooling1D) (None, 5, 16)        0           dropout_45[0][0]                 
__________________________________________________________________________________________________
flatten_2 (Flatten)             (None, 80)           0           max_pooling1d_12[0][0]           
__________________________________________________________________________________________________
dense_3 (Dense)                 (None, 128)          10368       flatten_2[0][0]                  
__________________________________________________________________________________________________
batch_normalization_80 (BatchNo (None, 128)          512         dense_3[0][0]                    
__________________________________________________________________________________________________
dropout_46 (Dropout)            (None, 128)          0           batch_normalization_80[0][0]     
__________________________________________________________________________________________________
dense_4 (Dense)                 (None, 10)           1290        dropout_46[0][0]                 
==================================================================================================
Total params: 28,459
Trainable params: 26,955
Non-trainable params: 1,504
__________________________________________________________________________________________________

mode_padding_epochs_200_lr_0.01
val_acc: 0.633810010031855
GPU Free Memory List --> [5934, 519, 519, 519] MiB
GPU 0 was chosen.
__________________________________________________________________________________________________
Layer (type)                    Output Shape         Param #     Connected to                     
==================================================================================================
input_3 (InputLayer)            (None, 300, 1)       0                                            
__________________________________________________________________________________________________
separable_conv1d_91 (SeparableC (None, 300, 16)      33          input_3[0][0]                    
__________________________________________________________________________________________________
batch_normalization_81 (BatchNo (None, 300, 16)      64          separable_conv1d_91[0][0]        
__________________________________________________________________________________________________
separable_conv1d_92 (SeparableC (None, 300, 16)      320         batch_normalization_81[0][0]     
__________________________________________________________________________________________________
batch_normalization_82 (BatchNo (None, 300, 16)      64          separable_conv1d_92[0][0]        
__________________________________________________________________________________________________
dropout_47 (Dropout)            (None, 300, 16)      0           batch_normalization_82[0][0]     
__________________________________________________________________________________________________
separable_conv1d_93 (SeparableC (None, 300, 16)      320         dropout_47[0][0]                 
__________________________________________________________________________________________________
batch_normalization_83 (BatchNo (None, 300, 16)      64          separable_conv1d_93[0][0]        
__________________________________________________________________________________________________
add_45 (Add)                    (None, 300, 16)      0           batch_normalization_83[0][0]     
                                                                 batch_normalization_81[0][0]     
__________________________________________________________________________________________________
separable_conv1d_94 (SeparableC (None, 300, 16)      320         add_45[0][0]                     
__________________________________________________________________________________________________
batch_normalization_84 (BatchNo (None, 300, 16)      64          separable_conv1d_94[0][0]        
__________________________________________________________________________________________________
dropout_48 (Dropout)            (None, 300, 16)      0           batch_normalization_84[0][0]     
__________________________________________________________________________________________________
separable_conv1d_95 (SeparableC (None, 300, 16)      320         dropout_48[0][0]                 
__________________________________________________________________________________________________
batch_normalization_85 (BatchNo (None, 300, 16)      64          separable_conv1d_95[0][0]        
__________________________________________________________________________________________________
add_46 (Add)                    (None, 300, 16)      0           batch_normalization_85[0][0]     
                                                                 add_45[0][0]                     
__________________________________________________________________________________________________
separable_conv1d_96 (SeparableC (None, 300, 16)      320         add_46[0][0]                     
__________________________________________________________________________________________________
batch_normalization_86 (BatchNo (None, 300, 16)      64          separable_conv1d_96[0][0]        
__________________________________________________________________________________________________
dropout_49 (Dropout)            (None, 300, 16)      0           batch_normalization_86[0][0]     
__________________________________________________________________________________________________
separable_conv1d_97 (SeparableC (None, 300, 16)      320         dropout_49[0][0]                 
__________________________________________________________________________________________________
batch_normalization_87 (BatchNo (None, 300, 16)      64          separable_conv1d_97[0][0]        
__________________________________________________________________________________________________
add_47 (Add)                    (None, 300, 16)      0           batch_normalization_87[0][0]     
                                                                 add_46[0][0]                     
__________________________________________________________________________________________________
separable_conv1d_98 (SeparableC (None, 300, 16)      320         add_47[0][0]                     
__________________________________________________________________________________________________
batch_normalization_88 (BatchNo (None, 300, 16)      64          separable_conv1d_98[0][0]        
__________________________________________________________________________________________________
dropout_50 (Dropout)            (None, 300, 16)      0           batch_normalization_88[0][0]     
__________________________________________________________________________________________________
separable_conv1d_99 (SeparableC (None, 300, 16)      320         dropout_50[0][0]                 
__________________________________________________________________________________________________
batch_normalization_89 (BatchNo (None, 300, 16)      64          separable_conv1d_99[0][0]        
__________________________________________________________________________________________________
add_48 (Add)                    (None, 300, 16)      0           batch_normalization_89[0][0]     
                                                                 add_47[0][0]                     
__________________________________________________________________________________________________
separable_conv1d_100 (Separable (None, 300, 16)      320         add_48[0][0]                     
__________________________________________________________________________________________________
batch_normalization_90 (BatchNo (None, 300, 16)      64          separable_conv1d_100[0][0]       
__________________________________________________________________________________________________
dropout_51 (Dropout)            (None, 300, 16)      0           batch_normalization_90[0][0]     
__________________________________________________________________________________________________
separable_conv1d_101 (Separable (None, 300, 16)      320         dropout_51[0][0]                 
__________________________________________________________________________________________________
batch_normalization_91 (BatchNo (None, 300, 16)      64          separable_conv1d_101[0][0]       
__________________________________________________________________________________________________
add_49 (Add)                    (None, 300, 16)      0           batch_normalization_91[0][0]     
                                                                 add_48[0][0]                     
__________________________________________________________________________________________________
separable_conv1d_102 (Separable (None, 300, 16)      320         add_49[0][0]                     
__________________________________________________________________________________________________
batch_normalization_92 (BatchNo (None, 300, 16)      64          separable_conv1d_102[0][0]       
__________________________________________________________________________________________________
dropout_52 (Dropout)            (None, 300, 16)      0           batch_normalization_92[0][0]     
__________________________________________________________________________________________________
separable_conv1d_103 (Separable (None, 300, 16)      320         dropout_52[0][0]                 
__________________________________________________________________________________________________
batch_normalization_93 (BatchNo (None, 300, 16)      64          separable_conv1d_103[0][0]       
__________________________________________________________________________________________________
add_50 (Add)                    (None, 300, 16)      0           batch_normalization_93[0][0]     
                                                                 add_49[0][0]                     
__________________________________________________________________________________________________
separable_conv1d_104 (Separable (None, 300, 16)      320         add_50[0][0]                     
__________________________________________________________________________________________________
batch_normalization_94 (BatchNo (None, 300, 16)      64          separable_conv1d_104[0][0]       
__________________________________________________________________________________________________
dropout_53 (Dropout)            (None, 300, 16)      0           batch_normalization_94[0][0]     
__________________________________________________________________________________________________
separable_conv1d_105 (Separable (None, 300, 16)      320         dropout_53[0][0]                 
__________________________________________________________________________________________________
batch_normalization_95 (BatchNo (None, 300, 16)      64          separable_conv1d_105[0][0]       
__________________________________________________________________________________________________
add_51 (Add)                    (None, 300, 16)      0           batch_normalization_95[0][0]     
                                                                 add_50[0][0]                     
__________________________________________________________________________________________________
separable_conv1d_106 (Separable (None, 300, 16)      320         add_51[0][0]                     
__________________________________________________________________________________________________
batch_normalization_96 (BatchNo (None, 300, 16)      64          separable_conv1d_106[0][0]       
__________________________________________________________________________________________________
dropout_54 (Dropout)            (None, 300, 16)      0           batch_normalization_96[0][0]     
__________________________________________________________________________________________________
separable_conv1d_107 (Separable (None, 300, 16)      320         dropout_54[0][0]                 
__________________________________________________________________________________________________
batch_normalization_97 (BatchNo (None, 300, 16)      64          separable_conv1d_107[0][0]       
__________________________________________________________________________________________________
add_52 (Add)                    (None, 300, 16)      0           batch_normalization_97[0][0]     
                                                                 add_51[0][0]                     
__________________________________________________________________________________________________
separable_conv1d_108 (Separable (None, 300, 16)      320         add_52[0][0]                     
__________________________________________________________________________________________________
batch_normalization_98 (BatchNo (None, 300, 16)      64          separable_conv1d_108[0][0]       
__________________________________________________________________________________________________
dropout_55 (Dropout)            (None, 300, 16)      0           batch_normalization_98[0][0]     
__________________________________________________________________________________________________
separable_conv1d_109 (Separable (None, 300, 16)      320         dropout_55[0][0]                 
__________________________________________________________________________________________________
batch_normalization_99 (BatchNo (None, 300, 16)      64          separable_conv1d_109[0][0]       
__________________________________________________________________________________________________
add_53 (Add)                    (None, 300, 16)      0           batch_normalization_99[0][0]     
                                                                 add_52[0][0]                     
__________________________________________________________________________________________________
separable_conv1d_110 (Separable (None, 300, 16)      320         add_53[0][0]                     
__________________________________________________________________________________________________
batch_normalization_100 (BatchN (None, 300, 16)      64          separable_conv1d_110[0][0]       
__________________________________________________________________________________________________
dropout_56 (Dropout)            (None, 300, 16)      0           batch_normalization_100[0][0]    
__________________________________________________________________________________________________
separable_conv1d_111 (Separable (None, 300, 16)      320         dropout_56[0][0]                 
__________________________________________________________________________________________________
batch_normalization_101 (BatchN (None, 300, 16)      64          separable_conv1d_111[0][0]       
__________________________________________________________________________________________________
add_54 (Add)                    (None, 300, 16)      0           batch_normalization_101[0][0]    
                                                                 add_53[0][0]                     
__________________________________________________________________________________________________
separable_conv1d_112 (Separable (None, 300, 16)      320         add_54[0][0]                     
__________________________________________________________________________________________________
batch_normalization_102 (BatchN (None, 300, 16)      64          separable_conv1d_112[0][0]       
__________________________________________________________________________________________________
dropout_57 (Dropout)            (None, 300, 16)      0           batch_normalization_102[0][0]    
__________________________________________________________________________________________________
separable_conv1d_113 (Separable (None, 300, 16)      320         dropout_57[0][0]                 
__________________________________________________________________________________________________
batch_normalization_103 (BatchN (None, 300, 16)      64          separable_conv1d_113[0][0]       
__________________________________________________________________________________________________
add_55 (Add)                    (None, 300, 16)      0           batch_normalization_103[0][0]    
                                                                 add_54[0][0]                     
__________________________________________________________________________________________________
separable_conv1d_114 (Separable (None, 300, 16)      320         add_55[0][0]                     
__________________________________________________________________________________________________
batch_normalization_104 (BatchN (None, 300, 16)      64          separable_conv1d_114[0][0]       
__________________________________________________________________________________________________
dropout_58 (Dropout)            (None, 300, 16)      0           batch_normalization_104[0][0]    
__________________________________________________________________________________________________
separable_conv1d_115 (Separable (None, 300, 16)      320         dropout_58[0][0]                 
__________________________________________________________________________________________________
batch_normalization_105 (BatchN (None, 300, 16)      64          separable_conv1d_115[0][0]       
__________________________________________________________________________________________________
add_56 (Add)                    (None, 300, 16)      0           batch_normalization_105[0][0]    
                                                                 add_55[0][0]                     
__________________________________________________________________________________________________
separable_conv1d_116 (Separable (None, 300, 16)      320         add_56[0][0]                     
__________________________________________________________________________________________________
batch_normalization_106 (BatchN (None, 300, 16)      64          separable_conv1d_116[0][0]       
__________________________________________________________________________________________________
dropout_59 (Dropout)            (None, 300, 16)      0           batch_normalization_106[0][0]    
__________________________________________________________________________________________________
separable_conv1d_117 (Separable (None, 300, 16)      320         dropout_59[0][0]                 
__________________________________________________________________________________________________
batch_normalization_107 (BatchN (None, 300, 16)      64          separable_conv1d_117[0][0]       
__________________________________________________________________________________________________
add_57 (Add)                    (None, 300, 16)      0           batch_normalization_107[0][0]    
                                                                 add_56[0][0]                     
__________________________________________________________________________________________________
separable_conv1d_118 (Separable (None, 300, 16)      320         add_57[0][0]                     
__________________________________________________________________________________________________
batch_normalization_108 (BatchN (None, 300, 16)      64          separable_conv1d_118[0][0]       
__________________________________________________________________________________________________
dropout_60 (Dropout)            (None, 300, 16)      0           batch_normalization_108[0][0]    
__________________________________________________________________________________________________
separable_conv1d_119 (Separable (None, 300, 16)      320         dropout_60[0][0]                 
__________________________________________________________________________________________________
batch_normalization_109 (BatchN (None, 300, 16)      64          separable_conv1d_119[0][0]       
__________________________________________________________________________________________________
add_58 (Add)                    (None, 300, 16)      0           batch_normalization_109[0][0]    
                                                                 add_57[0][0]                     
__________________________________________________________________________________________________
separable_conv1d_120 (Separable (None, 300, 16)      320         add_58[0][0]                     
__________________________________________________________________________________________________
batch_normalization_110 (BatchN (None, 300, 16)      64          separable_conv1d_120[0][0]       
__________________________________________________________________________________________________
dropout_61 (Dropout)            (None, 300, 16)      0           batch_normalization_110[0][0]    
__________________________________________________________________________________________________
separable_conv1d_121 (Separable (None, 300, 16)      320         dropout_61[0][0]                 
__________________________________________________________________________________________________
batch_normalization_111 (BatchN (None, 300, 16)      64          separable_conv1d_121[0][0]       
__________________________________________________________________________________________________
add_59 (Add)                    (None, 300, 16)      0           batch_normalization_111[0][0]    
                                                                 add_58[0][0]                     
__________________________________________________________________________________________________
separable_conv1d_122 (Separable (None, 300, 16)      320         add_59[0][0]                     
__________________________________________________________________________________________________
batch_normalization_112 (BatchN (None, 300, 16)      64          separable_conv1d_122[0][0]       
__________________________________________________________________________________________________
dropout_62 (Dropout)            (None, 300, 16)      0           batch_normalization_112[0][0]    
__________________________________________________________________________________________________
separable_conv1d_123 (Separable (None, 300, 16)      320         dropout_62[0][0]                 
__________________________________________________________________________________________________
batch_normalization_113 (BatchN (None, 300, 16)      64          separable_conv1d_123[0][0]       
__________________________________________________________________________________________________
add_60 (Add)                    (None, 300, 16)      0           batch_normalization_113[0][0]    
                                                                 add_59[0][0]                     
__________________________________________________________________________________________________
separable_conv1d_124 (Separable (None, 300, 16)      320         add_60[0][0]                     
__________________________________________________________________________________________________
batch_normalization_114 (BatchN (None, 300, 16)      64          separable_conv1d_124[0][0]       
__________________________________________________________________________________________________
dropout_63 (Dropout)            (None, 300, 16)      0           batch_normalization_114[0][0]    
__________________________________________________________________________________________________
max_pooling1d_13 (MaxPooling1D) (None, 150, 16)      0           dropout_63[0][0]                 Check at: 2020年 06月 12日 星期五 04:01:42 CST

__________________________________________________________________________________________________
separable_conv1d_125 (Separable (None, 150, 16)      320         add_60[0][0]                     
__________________________________________________________________________________________________
add_61 (Add)                    (None, 150, 16)      0           max_pooling1d_13[0][0]           
                                                                 separable_conv1d_125[0][0]       
__________________________________________________________________________________________________
separable_conv1d_126 (Separable (None, 150, 16)      320         add_61[0][0]                     
__________________________________________________________________________________________________
batch_normalization_115 (BatchN (None, 150, 16)      64          separable_conv1d_126[0][0]       
__________________________________________________________________________________________________
dropout_64 (Dropout)            (None, 150, 16)      0           batch_normalization_115[0][0]    
__________________________________________________________________________________________________
max_pooling1d_14 (MaxPooling1D) (None, 75, 16)       0           dropout_64[0][0]                 
__________________________________________________________________________________________________
separable_conv1d_127 (Separable (None, 75, 16)       320         add_61[0][0]                     
__________________________________________________________________________________________________
add_62 (Add)                    (None, 75, 16)       0           max_pooling1d_14[0][0]           
                                                                 separable_conv1d_127[0][0]       
__________________________________________________________________________________________________
separable_conv1d_128 (Separable (None, 75, 16)       320         add_62[0][0]                     
__________________________________________________________________________________________________
batch_normalization_116 (BatchN (None, 75, 16)       64          separable_conv1d_128[0][0]       
__________________________________________________________________________________________________
dropout_65 (Dropout)            (None, 75, 16)       0           batch_normalization_116[0][0]    
__________________________________________________________________________________________________
max_pooling1d_15 (MaxPooling1D) (None, 38, 16)       0           dropout_65[0][0]                 
__________________________________________________________________________________________________
separable_conv1d_129 (Separable (None, 38, 16)       320         add_62[0][0]                     
__________________________________________________________________________________________________
add_63 (Add)                    (None, 38, 16)       0           max_pooling1d_15[0][0]           
                                                                 separable_conv1d_129[0][0]       
__________________________________________________________________________________________________
separable_conv1d_130 (Separable (None, 38, 16)       320         add_63[0][0]                     
__________________________________________________________________________________________________
batch_normalization_117 (BatchN (None, 38, 16)       64          separable_conv1d_130[0][0]       
__________________________________________________________________________________________________
dropout_66 (Dropout)            (None, 38, 16)       0           batch_normalization_117[0][0]    
__________________________________________________________________________________________________
max_pooling1d_16 (MaxPooling1D) (None, 19, 16)       0           dropout_66[0][0]                 
__________________________________________________________________________________________________
separable_conv1d_131 (Separable (None, 19, 16)       320         add_63[0][0]                     
__________________________________________________________________________________________________
add_64 (Add)                    (None, 19, 16)       0           max_pooling1d_16[0][0]           
                                                                 separable_conv1d_131[0][0]       
__________________________________________________________________________________________________
separable_conv1d_132 (Separable (None, 19, 16)       320         add_64[0][0]                     
__________________________________________________________________________________________________
batch_normalization_118 (BatchN (None, 19, 16)       64          separable_conv1d_132[0][0]       
__________________________________________________________________________________________________
dropout_67 (Dropout)            (None, 19, 16)       0           batch_normalization_118[0][0]    
__________________________________________________________________________________________________
max_pooling1d_17 (MaxPooling1D) (None, 10, 16)       0           dropout_67[0][0]                 
__________________________________________________________________________________________________
separable_conv1d_133 (Separable (None, 10, 16)       320         add_64[0][0]                     
__________________________________________________________________________________________________
add_65 (Add)                    (None, 10, 16)       0           max_pooling1d_17[0][0]           
                                                                 separable_conv1d_133[0][0]       
__________________________________________________________________________________________________
separable_conv1d_134 (Separable (None, 10, 16)       320         add_65[0][0]                     
__________________________________________________________________________________________________
batch_normalization_119 (BatchN (None, 10, 16)       64          separable_conv1d_134[0][0]       
__________________________________________________________________________________________________
dropout_68 (Dropout)            (None, 10, 16)       0           batch_normalization_119[0][0]    
__________________________________________________________________________________________________
max_pooling1d_18 (MaxPooling1D) (None, 5, 16)        0           dropout_68[0][0]                 
__________________________________________________________________________________________________
flatten_3 (Flatten)             (None, 80)           0           max_pooling1d_18[0][0]           
__________________________________________________________________________________________________
dense_5 (Dense)                 (None, 128)          10368       flatten_3[0][0]                  
__________________________________________________________________________________________________
batch_normalization_120 (BatchN (None, 128)          512         dense_5[0][0]                    
__________________________________________________________________________________________________
dropout_69 (Dropout)            (None, 128)          0           batch_normalization_120[0][0]    
__________________________________________________________________________________________________
dense_6 (Dense)                 (None, 10)           1290        dropout_69[0][0]                 
==================================================================================================
Total params: 28,459
Trainable params: 26,955
Non-trainable params: 1,504
__________________________________________________________________________________________________

mode_padding_epochs_200_lr_0.001
val_acc: 0.5766087847174858
GPU Free Memory List --> [5934, 519, 519, 519] MiB
GPU 0 was chosen.
__________________________________________________________________________________________________
Layer (type)                    Output Shape         Param #     Connected to                     
==================================================================================================
input_4 (InputLayer)            (None, 300, 1)       0                                            
__________________________________________________________________________________________________
separable_conv1d_136 (Separable (None, 300, 16)      33          input_4[0][0]                    
__________________________________________________________________________________________________
batch_normalization_121 (BatchN (None, 300, 16)      64          separable_conv1d_136[0][0]       
__________________________________________________________________________________________________
separable_conv1d_137 (Separable (None, 300, 16)      320         batch_normalization_121[0][0]    
__________________________________________________________________________________________________
batch_normalization_122 (BatchN (None, 300, 16)      64          separable_conv1d_137[0][0]       
__________________________________________________________________________________________________
dropout_70 (Dropout)            (None, 300, 16)      0           batch_normalization_122[0][0]    
__________________________________________________________________________________________________
separable_conv1d_138 (Separable (None, 300, 16)      320         dropout_70[0][0]                 
__________________________________________________________________________________________________
batch_normalization_123 (BatchN (None, 300, 16)      64          separable_conv1d_138[0][0]       
__________________________________________________________________________________________________
add_67 (Add)                    (None, 300, 16)      0           batch_normalization_123[0][0]    
                                                                 batch_normalization_121[0][0]    
__________________________________________________________________________________________________
separable_conv1d_139 (Separable (None, 300, 16)      320         add_67[0][0]                     
__________________________________________________________________________________________________
batch_normalization_124 (BatchN (None, 300, 16)      64          separable_conv1d_139[0][0]       
__________________________________________________________________________________________________
dropout_71 (Dropout)            (None, 300, 16)      0           batch_normalization_124[0][0]    
__________________________________________________________________________________________________
separable_conv1d_140 (Separable (None, 300, 16)      320         dropout_71[0][0]                 
__________________________________________________________________________________________________
batch_normalization_125 (BatchN (None, 300, 16)      64          separable_conv1d_140[0][0]       
__________________________________________________________________________________________________
add_68 (Add)                    (None, 300, 16)      0           batch_normalization_125[0][0]    
                                                                 add_67[0][0]                     
__________________________________________________________________________________________________
separable_conv1d_141 (Separable (None, 300, 16)      320         add_68[0][0]                     
__________________________________________________________________________________________________
batch_normalization_126 (BatchN (None, 300, 16)      64          separable_conv1d_141[0][0]       
__________________________________________________________________________________________________
dropout_72 (Dropout)            (None, 300, 16)      0           batch_normalization_126[0][0]    
__________________________________________________________________________________________________
separable_conv1d_142 (Separable (None, 300, 16)      320         dropout_72[0][0]                 
__________________________________________________________________________________________________
batch_normalization_127 (BatchN (None, 300, 16)      64          separable_conv1d_142[0][0]       
__________________________________________________________________________________________________
add_69 (Add)                    (None, 300, 16)      0           batch_normalization_127[0][0]    
                                                                 add_68[0][0]                     
__________________________________________________________________________________________________
separable_conv1d_143 (Separable (None, 300, 16)      320         add_69[0][0]                     
__________________________________________________________________________________________________
batch_normalization_128 (BatchN (None, 300, 16)      64          separable_conv1d_143[0][0]       
__________________________________________________________________________________________________
dropout_73 (Dropout)            (None, 300, 16)      0           batch_normalization_128[0][0]    
__________________________________________________________________________________________________
separable_conv1d_144 (Separable (None, 300, 16)      320         dropout_73[0][0]                 
__________________________________________________________________________________________________
batch_normalization_129 (BatchN (None, 300, 16)      64          separable_conv1d_144[0][0]       
__________________________________________________________________________________________________
add_70 (Add)                    (None, 300, 16)      0           batch_normalization_129[0][0]    
                                                                 add_69[0][0]                     
__________________________________________________________________________________________________
separable_conv1d_145 (Separable (None, 300, 16)      320         add_70[0][0]                     
__________________________________________________________________________________________________
batch_normalization_130 (BatchN (None, 300, 16)      64          separable_conv1d_145[0][0]       
__________________________________________________________________________________________________
dropout_74 (Dropout)            (None, 300, 16)      0           batch_normalization_130[0][0]    
__________________________________________________________________________________________________
separable_conv1d_146 (Separable (None, 300, 16)      320         dropout_74[0][0]                 
__________________________________________________________________________________________________
batch_normalization_131 (BatchN (None, 300, 16)      64          separable_conv1d_146[0][0]       
__________________________________________________________________________________________________
add_71 (Add)                    (None, 300, 16)      0           batch_normalization_131[0][0]    
                                                                 add_70[0][0]                     
__________________________________________________________________________________________________
separable_conv1d_147 (Separable (None, 300, 16)      320         add_71[0][0]                     
__________________________________________________________________________________________________
batch_normalization_132 (BatchN (None, 300, 16)      64          separable_conv1d_147[0][0]       
__________________________________________________________________________________________________
dropout_75 (Dropout)            (None, 300, 16)      0           batch_normalization_132[0][0]    
__________________________________________________________________________________________________
separable_conv1d_148 (Separable (None, 300, 16)      320         dropout_75[0][0]                 
__________________________________________________________________________________________________
batch_normalization_133 (BatchN (None, 300, 16)      64          separable_conv1d_148[0][0]       
__________________________________________________________________________________________________
add_72 (Add)                    (None, 300, 16)      0           batch_normalization_133[0][0]    
                                                                 add_71[0][0]                     
__________________________________________________________________________________________________
separable_conv1d_149 (Separable (None, 300, 16)      320         add_72[0][0]                     
__________________________________________________________________________________________________
batch_normalization_134 (BatchN (None, 300, 16)      64          separable_conv1d_149[0][0]       
__________________________________________________________________________________________________
dropout_76 (Dropout)            (None, 300, 16)      0           batch_normalization_134[0][0]    
__________________________________________________________________________________________________
separable_conv1d_150 (Separable (None, 300, 16)      320         dropout_76[0][0]                 
__________________________________________________________________________________________________
batch_normalization_135 (BatchN (None, 300, 16)      64          separable_conv1d_150[0][0]       
__________________________________________________________________________________________________
add_73 (Add)                    (None, 300, 16)      0           batch_normalization_135[0][0]    
                                                                 add_72[0][0]                     
__________________________________________________________________________________________________
separable_conv1d_151 (Separable (None, 300, 16)      320         add_73[0][0]                     
__________________________________________________________________________________________________
batch_normalization_136 (BatchN (None, 300, 16)      64          separable_conv1d_151[0][0]       
__________________________________________________________________________________________________
dropout_77 (Dropout)            (None, 300, 16)      0           batch_normalization_136[0][0]    
__________________________________________________________________________________________________
separable_conv1d_152 (Separable (None, 300, 16)      320         dropout_77[0][0]                 
__________________________________________________________________________________________________
batch_normalization_137 (BatchN (None, 300, 16)      64          separable_conv1d_152[0][0]       
__________________________________________________________________________________________________
add_74 (Add)                    (None, 300, 16)      0           batch_normalization_137[0][0]    
                                                                 add_73[0][0]                     
__________________________________________________________________________________________________
separable_conv1d_153 (Separable (None, 300, 16)      320         add_74[0][0]                     
__________________________________________________________________________________________________
batch_normalization_138 (BatchN (None, 300, 16)      64          separable_conv1d_153[0][0]       
__________________________________________________________________________________________________
dropout_78 (Dropout)            (None, 300, 16)      0           batch_normalization_138[0][0]    
__________________________________________________________________________________________________
separable_conv1d_154 (Separable (None, 300, 16)      320         dropout_78[0][0]                 
__________________________________________________________________________________________________
batch_normalization_139 (BatchN (None, 300, 16)      64          separable_conv1d_154[0][0]       
__________________________________________________________________________________________________
add_75 (Add)                    (None, 300, 16)      0           batch_normalization_139[0][0]    
                                                                 add_74[0][0]                     
__________________________________________________________________________________________________
separable_conv1d_155 (Separable (None, 300, 16)      320         add_75[0][0]                     
__________________________________________________________________________________________________
batch_normalization_140 (BatchN (None, 300, 16)      64          separable_conv1d_155[0][0]       
__________________________________________________________________________________________________
dropout_79 (Dropout)            (None, 300, 16)      0           batch_normalization_140[0][0]    
__________________________________________________________________________________________________
separable_conv1d_156 (Separable (None, 300, 16)      320         dropout_79[0][0]                 
__________________________________________________________________________________________________
batch_normalization_141 (BatchN (None, 300, 16)      64          separable_conv1d_156[0][0]       
__________________________________________________________________________________________________
add_76 (Add)                    (None, 300, 16)      0           batch_normalization_141[0][0]    
                                                                 add_75[0][0]                     
__________________________________________________________________________________________________
separable_conv1d_157 (Separable (None, 300, 16)      320         add_76[0][0]                     
__________________________________________________________________________________________________
batch_normalization_142 (BatchN (None, 300, 16)      64          separable_conv1d_157[0][0]       
__________________________________________________________________________________________________
dropout_80 (Dropout)            (None, 300, 16)      0           batch_normalization_142[0][0]    
__________________________________________________________________________________________________
separable_conv1d_158 (Separable (None, 300, 16)      320         dropout_80[0][0]                 
__________________________________________________________________________________________________
batch_normalization_143 (BatchN (None, 300, 16)      64          separable_conv1d_158[0][0]       
__________________________________________________________________________________________________
add_77 (Add)                    (None, 300, 16)      0           batch_normalization_143[0][0]    
                                                                 add_76[0][0]                     
__________________________________________________________________________________________________
separable_conv1d_159 (Separable (None, 300, 16)      320         add_77[0][0]                     
__________________________________________________________________________________________________
batch_normalization_144 (BatchN (None, 300, 16)      64          separable_conv1d_159[0][0]       
__________________________________________________________________________________________________
dropout_81 (Dropout)            (None, 300, 16)      0           batch_normalization_144[0][0]    
__________________________________________________________________________________________________
separable_conv1d_160 (Separable (None, 300, 16)      320         dropout_81[0][0]                 
__________________________________________________________________________________________________
batch_normalization_145 (BatchN (None, 300, 16)      64          separable_conv1d_160[0][0]       
__________________________________________________________________________________________________
add_78 (Add)                    (None, 300, 16)      0           batch_normalization_145[0][0]    
                                                                 add_77[0][0]                     
__________________________________________________________________________________________________
separable_conv1d_161 (Separable (None, 300, 16)      320         add_78[0][0]                     
__________________________________________________________________________________________________
batch_normalization_146 (BatchN (None, 300, 16)      64          separable_conv1d_161[0][0]       
__________________________________________________________________________________________________
dropout_82 (Dropout)            (None, 300, 16)      0           batch_normalization_146[0][0]    
__________________________________________________________________________________________________
separable_conv1d_162 (Separable (None, 300, 16)      320         dropout_82[0][0]                 
__________________________________________________________________________________________________
batch_normalization_147 (BatchN (None, 300, 16)      64          separable_conv1d_162[0][0]       
__________________________________________________________________________________________________
add_79 (Add)                    (None, 300, 16)      0           batch_normalization_147[0][0]    
                                                                 add_78[0][0]                     
__________________________________________________________________________________________________
separable_conv1d_163 (Separable (None, 300, 16)      320         add_79[0][0]                     
__________________________________________________________________________________________________
batch_normalization_148 (BatchN (None, 300, 16)      64          separable_conv1d_163[0][0]       
__________________________________________________________________________________________________
dropout_83 (Dropout)            (None, 300, 16)      0           batch_normalization_148[0][0]    
__________________________________________________________________________________________________
separable_conv1d_164 (Separable (None, 300, 16)      320         dropout_83[0][0]                 
__________________________________________________________________________________________________
batch_normalization_149 (BatchN (None, 300, 16)      64          separable_conv1d_164[0][0]       
__________________________________________________________________________________________________
add_80 (Add)                    (None, 300, 16)      0           batch_normalization_149[0][0]    
                                                                 add_79[0][0]                     
__________________________________________________________________________________________________
separable_conv1d_165 (Separable (None, 300, 16)      320         add_80[0][0]                     
__________________________________________________________________________________________________
batch_normalization_150 (BatchN (None, 300, 16)      64          separable_conv1d_165[0][0]       
__________________________________________________________________________________________________
dropout_84 (Dropout)            (None, 300, 16)      0           batch_normalization_150[0][0]    
__________________________________________________________________________________________________
separable_conv1d_166 (Separable (None, 300, 16)      320         dropout_84[0][0]                 
__________________________________________________________________________________________________
batch_normalization_151 (BatchN (None, 300, 16)      64          separable_conv1d_166[0][0]       
__________________________________________________________________________________________________
add_81 (Add)                    (None, 300, 16)      0           batch_normalization_151[0][0]    
                                                                 add_80[0][0]                     
__________________________________________________________________________________________________
separable_conv1d_167 (Separable (None, 300, 16)      320         add_81[0][0]                     
__________________________________________________________________________________________________
batch_normalization_152 (BatchN (None, 300, 16)      64          separable_conv1d_167[0][0]       
__________________________________________________________________________________________________
dropout_85 (Dropout)            (None, 300, 16)      0           batch_normalization_152[0][0]    
__________________________________________________________________________________________________
separable_conv1d_168 (Separable (None, 300, 16)      320         dropout_85[0][0]                 
__________________________________________________________________________________________________
batch_normalization_153 (BatchN (None, 300, 16)      64          separable_conv1d_168[0][0]       
__________________________________________________________________________________________________
add_82 (Add)                    (None, 300, 16)      0           batch_normalization_153[0][0]    
                                                                 add_81[0][0]                     
__________________________________________________________________________________________________
separable_conv1d_169 (Separable (None, 300, 16)      320         add_82[0][0]                     
__________________________________________________________________________________________________
batch_normalization_154 (BatchN (None, 300, 16)      64          separable_conv1d_169[0][0]       
__________________________________________________________________________________________________
dropout_86 (Dropout)            (None, 300, 16)      0           batch_normalization_154[0][0]    
__________________________________________________________________________________________________
max_pooling1d_19 (MaxPooling1D) (None, 150, 16)      0           dropout_86[0][0]                 
__________________________________________________________________________________________________
separable_conv1d_170 (Separable (None, 150, 16)      320         add_82[0][0]                     
__________________________________________________________________________________________________
add_83 (Add)                    (None, 150, 16)      0           max_pooling1d_19[0][0]           
                                                                 separable_conv1d_170[0][0]       
__________________________________________________________________________________________________
separable_conv1d_171 (Separable (None, 150, 16)      320         add_83[0][0]                     
__________________________________________________________________________________________________
batch_normalization_155 (BatchN (None, 150, 16)      64          separable_conv1d_171[0][0]       
__________________________________________________________________________________________________
dropout_87 (Dropout)            (None, 150, 16)      0           batch_normalization_155[0][0]    
__________________________________________________________________________________________________
max_pooling1d_20 (MaxPooling1D) (None, 75, 16)       0           dropout_87[0][0]                 
__________________________________________________________________________________________________
separable_conv1d_172 (Separable (None, 75, 16)       320         add_83[0][0]                     
__________________________________________________________________________________________________
add_84 (Add)                    (None, 75, 16)       0           max_pooling1d_20[0][0]           
                                                                 separable_conv1d_172[0][0]       
__________________________________________________________________________________________________
separable_conv1d_173 (Separable (None, 75, 16)       320         add_84[0][0]                     
__________________________________________________________________________________________________
batch_normalization_156 (BatchN (None, 75, 16)       64          separable_conv1d_173[0][0]       
__________________________________________________________________________________________________
dropout_88 (Dropout)            (None, 75, 16)       0           batch_normalization_156[0][0]    
__________________________________________________________________________________________________
max_pooling1d_21 (MaxPooling1D) (None, 38, 16)       0           dropout_88[0][0]                 
__________________________________________________________________________________________________
separable_conv1d_174 (Separable (None, 38, 16)       320         add_84[0][0]                     
__________________________________________________________________________________________________Check at: 2020年 06月 12日 星期五 04:34:33 CST

add_85 (Add)                    (None, 38, 16)       0           max_pooling1d_21[0][0]           
                                                                 separable_conv1d_174[0][0]       
__________________________________________________________________________________________________
separable_conv1d_175 (Separable (None, 38, 16)       320         add_85[0][0]                     
__________________________________________________________________________________________________
batch_normalization_157 (BatchN (None, 38, 16)       64          separable_conv1d_175[0][0]       
__________________________________________________________________________________________________
dropout_89 (Dropout)            (None, 38, 16)       0           batch_normalization_157[0][0]    
__________________________________________________________________________________________________
max_pooling1d_22 (MaxPooling1D) (None, 19, 16)       0           dropout_89[0][0]                 
__________________________________________________________________________________________________
separable_conv1d_176 (Separable (None, 19, 16)       320         add_85[0][0]                     
__________________________________________________________________________________________________
add_86 (Add)                    (None, 19, 16)       0           max_pooling1d_22[0][0]           
                                                                 separable_conv1d_176[0][0]       
__________________________________________________________________________________________________
separable_conv1d_177 (Separable (None, 19, 16)       320         add_86[0][0]                     
__________________________________________________________________________________________________
batch_normalization_158 (BatchN (None, 19, 16)       64          separable_conv1d_177[0][0]       
__________________________________________________________________________________________________
dropout_90 (Dropout)            (None, 19, 16)       0           batch_normalization_158[0][0]    
__________________________________________________________________________________________________
max_pooling1d_23 (MaxPooling1D) (None, 10, 16)       0           dropout_90[0][0]                 
__________________________________________________________________________________________________
separable_conv1d_178 (Separable (None, 10, 16)       320         add_86[0][0]                     
__________________________________________________________________________________________________
add_87 (Add)                    (None, 10, 16)       0           max_pooling1d_23[0][0]           
                                                                 separable_conv1d_178[0][0]       
__________________________________________________________________________________________________
separable_conv1d_179 (Separable (None, 10, 16)       320         add_87[0][0]                     
__________________________________________________________________________________________________
batch_normalization_159 (BatchN (None, 10, 16)       64          separable_conv1d_179[0][0]       
__________________________________________________________________________________________________
dropout_91 (Dropout)            (None, 10, 16)       0           batch_normalization_159[0][0]    
__________________________________________________________________________________________________
max_pooling1d_24 (MaxPooling1D) (None, 5, 16)        0           dropout_91[0][0]                 
__________________________________________________________________________________________________
flatten_4 (Flatten)             (None, 80)           0           max_pooling1d_24[0][0]           
__________________________________________________________________________________________________
dense_7 (Dense)                 (None, 128)          10368       flatten_4[0][0]                  
__________________________________________________________________________________________________
batch_normalization_160 (BatchN (None, 128)          512         dense_7[0][0]                    
__________________________________________________________________________________________________
dropout_92 (Dropout)            (None, 128)          0           batch_normalization_160[0][0]    
__________________________________________________________________________________________________
dense_8 (Dense)                 (None, 10)           1290        dropout_92[0][0]                 
==================================================================================================
Total params: 28,459
Trainable params: 26,955
Non-trainable params: 1,504
__________________________________________________________________________________________________

mode_padding_epochs_200_lr_0.0001
val_acc: 0.5418794684195787
GPU Free Memory List --> [5934, 519, 519, 519] MiB
GPU 0 was chosen.
__________________________________________________________________________________________________
Layer (type)                    Output Shape         Param #     Connected to                     
==================================================================================================
input_5 (InputLayer)            (None, 300, 1)       0                                            
__________________________________________________________________________________________________
separable_conv1d_181 (Separable (None, 300, 16)      33          input_5[0][0]                    
__________________________________________________________________________________________________
batch_normalization_161 (BatchN (None, 300, 16)      64          separable_conv1d_181[0][0]       
__________________________________________________________________________________________________
separable_conv1d_182 (Separable (None, 300, 16)      320         batch_normalization_161[0][0]    
__________________________________________________________________________________________________
batch_normalization_162 (BatchN (None, 300, 16)      64          separable_conv1d_182[0][0]       
__________________________________________________________________________________________________
dropout_93 (Dropout)            (None, 300, 16)      0           batch_normalization_162[0][0]    
__________________________________________________________________________________________________
separable_conv1d_183 (Separable (None, 300, 16)      320         dropout_93[0][0]                 
__________________________________________________________________________________________________
batch_normalization_163 (BatchN (None, 300, 16)      64          separable_conv1d_183[0][0]       
__________________________________________________________________________________________________
add_89 (Add)                    (None, 300, 16)      0           batch_normalization_163[0][0]    
                                                                 batch_normalization_161[0][0]    
__________________________________________________________________________________________________
separable_conv1d_184 (Separable (None, 300, 16)      320         add_89[0][0]                     
__________________________________________________________________________________________________
batch_normalization_164 (BatchN (None, 300, 16)      64          separable_conv1d_184[0][0]       
__________________________________________________________________________________________________
dropout_94 (Dropout)            (None, 300, 16)      0           batch_normalization_164[0][0]    
__________________________________________________________________________________________________
separable_conv1d_185 (Separable (None, 300, 16)      320         dropout_94[0][0]                 
__________________________________________________________________________________________________
batch_normalization_165 (BatchN (None, 300, 16)      64          separable_conv1d_185[0][0]       
__________________________________________________________________________________________________
add_90 (Add)                    (None, 300, 16)      0           batch_normalization_165[0][0]    
                                                                 add_89[0][0]                     
__________________________________________________________________________________________________
separable_conv1d_186 (Separable (None, 300, 16)      320         add_90[0][0]                     
__________________________________________________________________________________________________
batch_normalization_166 (BatchN (None, 300, 16)      64          separable_conv1d_186[0][0]       
__________________________________________________________________________________________________
dropout_95 (Dropout)            (None, 300, 16)      0           batch_normalization_166[0][0]    
__________________________________________________________________________________________________
separable_conv1d_187 (Separable (None, 300, 16)      320         dropout_95[0][0]                 
__________________________________________________________________________________________________
batch_normalization_167 (BatchN (None, 300, 16)      64          separable_conv1d_187[0][0]       
__________________________________________________________________________________________________
add_91 (Add)                    (None, 300, 16)      0           batch_normalization_167[0][0]    
                                                                 add_90[0][0]                     
__________________________________________________________________________________________________
separable_conv1d_188 (Separable (None, 300, 16)      320         add_91[0][0]                     
__________________________________________________________________________________________________
batch_normalization_168 (BatchN (None, 300, 16)      64          separable_conv1d_188[0][0]       
__________________________________________________________________________________________________
dropout_96 (Dropout)            (None, 300, 16)      0           batch_normalization_168[0][0]    
__________________________________________________________________________________________________
separable_conv1d_189 (Separable (None, 300, 16)      320         dropout_96[0][0]                 
__________________________________________________________________________________________________
batch_normalization_169 (BatchN (None, 300, 16)      64          separable_conv1d_189[0][0]       
__________________________________________________________________________________________________
add_92 (Add)                    (None, 300, 16)      0           batch_normalization_169[0][0]    
                                                                 add_91[0][0]                     
__________________________________________________________________________________________________
separable_conv1d_190 (Separable (None, 300, 16)      320         add_92[0][0]                     
__________________________________________________________________________________________________
batch_normalization_170 (BatchN (None, 300, 16)      64          separable_conv1d_190[0][0]       
__________________________________________________________________________________________________
dropout_97 (Dropout)            (None, 300, 16)      0           batch_normalization_170[0][0]    
__________________________________________________________________________________________________
separable_conv1d_191 (Separable (None, 300, 16)      320         dropout_97[0][0]                 
__________________________________________________________________________________________________
batch_normalization_171 (BatchN (None, 300, 16)      64          separable_conv1d_191[0][0]       
__________________________________________________________________________________________________
add_93 (Add)                    (None, 300, 16)      0           batch_normalization_171[0][0]    
                                                                 add_92[0][0]                     
__________________________________________________________________________________________________
separable_conv1d_192 (Separable (None, 300, 16)      320         add_93[0][0]                     
__________________________________________________________________________________________________
batch_normalization_172 (BatchN (None, 300, 16)      64          separable_conv1d_192[0][0]       
__________________________________________________________________________________________________
dropout_98 (Dropout)            (None, 300, 16)      0           batch_normalization_172[0][0]    
__________________________________________________________________________________________________
separable_conv1d_193 (Separable (None, 300, 16)      320         dropout_98[0][0]                 
__________________________________________________________________________________________________
batch_normalization_173 (BatchN (None, 300, 16)      64          separable_conv1d_193[0][0]       
__________________________________________________________________________________________________
add_94 (Add)                    (None, 300, 16)      0           batch_normalization_173[0][0]    
                                                                 add_93[0][0]                     
__________________________________________________________________________________________________
separable_conv1d_194 (Separable (None, 300, 16)      320         add_94[0][0]                     
__________________________________________________________________________________________________
batch_normalization_174 (BatchN (None, 300, 16)      64          separable_conv1d_194[0][0]       
__________________________________________________________________________________________________
dropout_99 (Dropout)            (None, 300, 16)      0           batch_normalization_174[0][0]    
__________________________________________________________________________________________________
separable_conv1d_195 (Separable (None, 300, 16)      320         dropout_99[0][0]                 
__________________________________________________________________________________________________
batch_normalization_175 (BatchN (None, 300, 16)      64          separable_conv1d_195[0][0]       
__________________________________________________________________________________________________
add_95 (Add)                    (None, 300, 16)      0           batch_normalization_175[0][0]    
                                                                 add_94[0][0]                     
__________________________________________________________________________________________________
separable_conv1d_196 (Separable (None, 300, 16)      320         add_95[0][0]                     
__________________________________________________________________________________________________
batch_normalization_176 (BatchN (None, 300, 16)      64          separable_conv1d_196[0][0]       
__________________________________________________________________________________________________
dropout_100 (Dropout)           (None, 300, 16)      0           batch_normalization_176[0][0]    
__________________________________________________________________________________________________
separable_conv1d_197 (Separable (None, 300, 16)      320         dropout_100[0][0]                
__________________________________________________________________________________________________
batch_normalization_177 (BatchN (None, 300, 16)      64          separable_conv1d_197[0][0]       
__________________________________________________________________________________________________
add_96 (Add)                    (None, 300, 16)      0           batch_normalization_177[0][0]    
                                                                 add_95[0][0]                     
__________________________________________________________________________________________________
separable_conv1d_198 (Separable (None, 300, 16)      320         add_96[0][0]                     
__________________________________________________________________________________________________
batch_normalization_178 (BatchN (None, 300, 16)      64          separable_conv1d_198[0][0]       
__________________________________________________________________________________________________
dropout_101 (Dropout)           (None, 300, 16)      0           batch_normalization_178[0][0]    
__________________________________________________________________________________________________
separable_conv1d_199 (Separable (None, 300, 16)      320         dropout_101[0][0]                
__________________________________________________________________________________________________
batch_normalization_179 (BatchN (None, 300, 16)      64          separable_conv1d_199[0][0]       
__________________________________________________________________________________________________
add_97 (Add)                    (None, 300, 16)      0           batch_normalization_179[0][0]    
                                                                 add_96[0][0]                     
__________________________________________________________________________________________________
separable_conv1d_200 (Separable (None, 300, 16)      320         add_97[0][0]                     
__________________________________________________________________________________________________
batch_normalization_180 (BatchN (None, 300, 16)      64          separable_conv1d_200[0][0]       
__________________________________________________________________________________________________
dropout_102 (Dropout)           (None, 300, 16)      0           batch_normalization_180[0][0]    
__________________________________________________________________________________________________
separable_conv1d_201 (Separable (None, 300, 16)      320         dropout_102[0][0]                
__________________________________________________________________________________________________
batch_normalization_181 (BatchN (None, 300, 16)      64          separable_conv1d_201[0][0]       
__________________________________________________________________________________________________
add_98 (Add)                    (None, 300, 16)      0           batch_normalization_181[0][0]    
                                                                 add_97[0][0]                     
__________________________________________________________________________________________________
separable_conv1d_202 (Separable (None, 300, 16)      320         add_98[0][0]                     
__________________________________________________________________________________________________
batch_normalization_182 (BatchN (None, 300, 16)      64          separable_conv1d_202[0][0]       
__________________________________________________________________________________________________
dropout_103 (Dropout)           (None, 300, 16)      0           batch_normalization_182[0][0]    
__________________________________________________________________________________________________
separable_conv1d_203 (Separable (None, 300, 16)      320         dropout_103[0][0]                
__________________________________________________________________________________________________
batch_normalization_183 (BatchN (None, 300, 16)      64          separable_conv1d_203[0][0]       
__________________________________________________________________________________________________
add_99 (Add)                    (None, 300, 16)      0           batch_normalization_183[0][0]    
                                                                 add_98[0][0]                     
__________________________________________________________________________________________________
separable_conv1d_204 (Separable (None, 300, 16)      320         add_99[0][0]                     
__________________________________________________________________________________________________
batch_normalization_184 (BatchN (None, 300, 16)      64          separable_conv1d_204[0][0]       
__________________________________________________________________________________________________
dropout_104 (Dropout)           (None, 300, 16)      0           batch_normalization_184[0][0]    
__________________________________________________________________________________________________
separable_conv1d_205 (Separable (None, 300, 16)      320         dropout_104[0][0]                
__________________________________________________________________________________________________
batch_normalization_185 (BatchN (None, 300, 16)      64          separable_conv1d_205[0][0]       
__________________________________________________________________________________________________
add_100 (Add)                   (None, 300, 16)      0           batch_normalization_185[0][0]    
                                                                 add_99[0][0]                     
__________________________________________________________________________________________________
separable_conv1d_206 (Separable (None, 300, 16)      320         add_100[0][0]                    
__________________________________________________________________________________________________
batch_normalization_186 (BatchN (None, 300, 16)      64          separable_conv1d_206[0][0]       
__________________________________________________________________________________________________
dropout_105 (Dropout)           (None, 300, 16)      0           batch_normalization_186[0][0]    
__________________________________________________________________________________________________
separable_conv1d_207 (Separable (None, 300, 16)      320         dropout_105[0][0]                
__________________________________________________________________________________________________
batch_normalization_187 (BatchN (None, 300, 16)      64          separable_conv1d_207[0][0]       
__________________________________________________________________________________________________
add_101 (Add)                   (None, 300, 16)      0           batch_normalization_187[0][0]    
                                                                 add_100[0][0]                    
__________________________________________________________________________________________________
separable_conv1d_208 (Separable (None, 300, 16)      320         add_101[0][0]                    
__________________________________________________________________________________________________
batch_normalization_188 (BatchN (None, 300, 16)      64          separable_conv1d_208[0][0]       
__________________________________________________________________________________________________
dropout_106 (Dropout)           (None, 300, 16)      0           batch_normalization_188[0][0]    
__________________________________________________________________________________________________
separable_conv1d_209 (Separable (None, 300, 16)      320         dropout_106[0][0]                
__________________________________________________________________________________________________
batch_normalization_189 (BatchN (None, 300, 16)      64          separable_conv1d_209[0][0]       
__________________________________________________________________________________________________
add_102 (Add)                   (None, 300, 16)      0           batch_normalization_189[0][0]    
                                                                 add_101[0][0]                    
__________________________________________________________________________________________________
separable_conv1d_210 (Separable (None, 300, 16)      320         add_102[0][0]                    
__________________________________________________________________________________________________
batch_normalization_190 (BatchN (None, 300, 16)      64          separable_conv1d_210[0][0]       
__________________________________________________________________________________________________
dropout_107 (Dropout)           (None, 300, 16)      0           batch_normalization_190[0][0]    
__________________________________________________________________________________________________
separable_conv1d_211 (Separable (None, 300, 16)      320         dropout_107[0][0]                
__________________________________________________________________________________________________
batch_normalization_191 (BatchN (None, 300, 16)      64          separable_conv1d_211[0][0]       
__________________________________________________________________________________________________
add_103 (Add)                   (None, 300, 16)      0           batch_normalization_191[0][0]    
                                                                 add_102[0][0]                    
__________________________________________________________________________________________________
separable_conv1d_212 (Separable (None, 300, 16)      320         add_103[0][0]                    
__________________________________________________________________________________________________
batch_normalization_192 (BatchN (None, 300, 16)      64          separable_conv1d_212[0][0]       
__________________________________________________________________________________________________
dropout_108 (Dropout)           (None, 300, 16)      0           batch_normalization_192[0][0]    
__________________________________________________________________________________________________
separable_conv1d_213 (Separable (None, 300, 16)      320         dropout_108[0][0]                
__________________________________________________________________________________________________
batch_normalization_193 (BatchN (None, 300, 16)      64          separable_conv1d_213[0][0]       
__________________________________________________________________________________________________
add_104 (Add)                   (None, 300, 16)      0           batch_normalization_193[0][0]    
                                                                 add_103[0][0]                    
__________________________________________________________________________________________________
separable_conv1d_214 (Separable (None, 300, 16)      320         add_104[0][0]                    
__________________________________________________________________________________________________
batch_normalization_194 (BatchN (None, 300, 16)      64          separable_conv1d_214[0][0]       
__________________________________________________________________________________________________
dropout_109 (Dropout)           (None, 300, 16)      0           batch_normalization_194[0][0]    
__________________________________________________________________________________________________
max_pooling1d_25 (MaxPooling1D) (None, 150, 16)      0           dropout_109[0][0]                
__________________________________________________________________________________________________
separable_conv1d_215 (Separable (None, 150, 16)      320         add_104[0][0]                    
__________________________________________________________________________________________________
add_105 (Add)                   (None, 150, 16)      0           max_pooling1d_25[0][0]           
                                                                 separable_conv1d_215[0][0]       
__________________________________________________________________________________________________
separable_conv1d_216 (Separable (None, 150, 16)      320         add_105[0][0]                    
__________________________________________________________________________________________________
batch_normalization_195 (BatchN (None, 150, 16)      64          separable_conv1d_216[0][0]       
__________________________________________________________________________________________________
dropout_110 (Dropout)           (None, 150, 16)      0           batch_normalization_195[0][0]    
__________________________________________________________________________________________________
max_pooling1d_26 (MaxPooling1D) (None, 75, 16)       0           dropout_110[0][0]                
__________________________________________________________________________________________________
separable_conv1d_217 (Separable (None, 75, 16)       320         add_105[0][0]                    
__________________________________________________________________________________________________
add_106 (Add)                   (None, 75, 16)       0           max_pooling1d_26[0][0]           
                                                                 separable_conv1d_217[0][0]       
__________________________________________________________________________________________________
separable_conv1d_218 (Separable (None, 75, 16)       320         add_106[0][0]                    
__________________________________________________________________________________________________
batch_normalization_196 (BatchN (None, 75, 16)       64          separable_conv1d_218[0][0]       
__________________________________________________________________________________________________
dropout_111 (Dropout)           (None, 75, 16)       0           batch_normalization_196[0][0]    
__________________________________________________________________________________________________
max_pooling1d_27 (MaxPooling1D) (None, 38, 16)       0           dropout_111[0][0]                
__________________________________________________________________________________________________
separable_conv1d_219 (Separable (None, 38, 16)       320         add_106[0][0]                    
__________________________________________________________________________________________________
add_107 (Add)                   (None, 38, 16)       0           max_pooling1d_27[0][0]           
                                                                 separable_conv1d_219[0][0]       
__________________________________________________________________________________________________
separable_conv1d_220 (Separable (None, 38, 16)       320         add_107[0][0]                    
__________________________________________________________________________________________________
batch_normalization_197 (BatchN (None, 38, 16)       64          separable_conv1d_220[0][0]       
__________________________________________________________________________________________________
dropout_112 (Dropout)           (None, 38, 16)       0           batch_normalization_197[0][0]    
__________________________________________________________________________________________________
max_pooling1d_28 (MaxPooling1D) (None, 19, 16)       0           dropout_112[0][0]                
__________________________________________________________________________________________________
separable_conv1d_221 (Separable (None, 19, 16)       320         add_107[0][0]                    
__________________________________________________________________________________________________
add_108 (Add)                   (None, 19, 16)       0           max_pooling1d_28[0][0]           
                                                                 separable_conv1d_221[0][0]       
__________________________________________________________________________________________________
separable_conv1d_222 (Separable (None, 19, 16)       320         add_108[0][0]                    
__________________________________________________________________________________________________
batch_normalization_198 (BatchN (None, 19, 16)       64          separable_conv1d_222[0][0]       
__________________________________________________________________________________________________
dropout_113 (Dropout)           (None, 19, 16)       0           batch_normalization_198[0][0]    
__________________________________________________________________________________________________
max_pooling1d_29 (MaxPooling1D) (None, 10, 16)       0           dropout_113[0][0]                
__________________________________________________________________________________________________
separable_conv1d_223 (Separable (None, 10, 16)       320         add_108[0][0]                    
__________________________________________________________________________________________________
add_109 (Add)                   (None, 10, 16)       0           max_pooling1d_29[0][0]           
                                                                 separable_conv1d_223[0][0]       
__________________________________________________________________________________________________Check at: 2020年 06月 12日 星期五 05:09:06 CST

separable_conv1d_224 (Separable (None, 10, 16)       320         add_109[0][0]                    
__________________________________________________________________________________________________
batch_normalization_199 (BatchN (None, 10, 16)       64          separable_conv1d_224[0][0]       
__________________________________________________________________________________________________
dropout_114 (Dropout)           (None, 10, 16)       0           batch_normalization_199[0][0]    
__________________________________________________________________________________________________
max_pooling1d_30 (MaxPooling1D) (None, 5, 16)        0           dropout_114[0][0]                
__________________________________________________________________________________________________
flatten_5 (Flatten)             (None, 80)           0           max_pooling1d_30[0][0]           
__________________________________________________________________________________________________
dense_9 (Dense)                 (None, 128)          10368       flatten_5[0][0]                  
__________________________________________________________________________________________________
batch_normalization_200 (BatchN (None, 128)          512         dense_9[0][0]                    
__________________________________________________________________________________________________
dropout_115 (Dropout)           (None, 128)          0           batch_normalization_200[0][0]    
__________________________________________________________________________________________________
dense_10 (Dense)                (None, 10)           1290        dropout_115[0][0]                
…
__________________________________________________________________________________________________
batch_normalization_336 (BatchN (None, 100, 16)      64          separable_conv1d_376[0][0]       
__________________________________________________________________________________________________
dropout_192 (Dropout)           (None, 100, 16)      0           batch_normalization_336[0][0]    
__________________________________________________________________________________________________
separable_conv1d_377 (Separable (None, 100, 16)      320         dropout_192[0][0]                
__________________________________________________________________________________________________
batch_normalization_337 (BatchN (None, 100, 16)      64          separable_conv1d_377[0][0]       
__________________________________________________________________________________________________
add_184 (Add)                   (None, 100, 16)      0           batch_normalization_337[0][0]    
                                                                 add_183[0][0]                    
__________________________________________________________________________________________________
separable_conv1d_378 (Separable (None, 100, 16)      320         add_184[0][0]                    
__________________________________________________________________________________________________
batch_normalization_338 (BatchN (None, 100, 16)      64          separable_conv1d_378[0][0]       
__________________________________________________________________________________________________
dropout_193 (Dropout)           (None, 100, 16)      0           batch_normalization_338[0][0]    
__________________________________________________________________________________________________
separable_conv1d_379 (Separable (None, 100, 16)      320         dropout_193[0][0]                
__________________________________________________________________________________________________
batch_normalization_339 (BatchN (None, 100, 16)      64          separable_conv1d_379[0][0]       
__________________________________________________________________________________________________
add_185 (Add)                   (None, 100, 16)      0           batch_normalization_339[0][0]    
                                                                 add_184[0][0]                    
__________________________________________________________________________________________________
separable_conv1d_380 (Separable (None, 100, 16)      320         add_185[0][0]                    
__________________________________________________________________________________________________
batch_normalization_340 (BatchN (None, 100, 16)      64          separable_conv1d_380[0][0]       
__________________________________________________________________________________________________
dropout_194 (Dropout)           (None, 100, 16)      0           batch_normalization_340[0][0]    
__________________________________________________________________________________________________
separable_conv1d_381 (Separable (None, 100, 16)      320         dropout_194[0][0]                
__________________________________________________________________________________________________
batch_normalization_341 (BatchN (None, 100, 16)      64          separable_conv1d_381[0][0]       
__________________________________________________________________________________________________
add_186 (Add)                   (None, 100, 16)      0           batch_normalization_341[0][0]    
                                                                 add_185[0][0]                    
__________________________________________________________________________________________________
separable_conv1d_382 (Separable (None, 100, 16)      320         add_186[0][0]                    
__________________________________________________________________________________________________
batch_normalization_342 (BatchN (None, 100, 16)      64          separable_conv1d_382[0][0]       
__________________________________________________________________________________________________
dropout_195 (Dropout)           (None, 100, 16)      0           batch_normalization_342[0][0]    
__________________________________________________________________________________________________
separable_conv1d_383 (Separable (None, 100, 16)      320         dropout_195[0][0]                
__________________________________________________________________________________________________
batch_normalization_343 (BatchN (None, 100, 16)      64          separable_conv1d_383[0][0]       
__________________________________________________________________________________________________
add_187 (Add)                   (None, 100, 16)      0           batch_normalization_343[0][0]    
                                                                 add_186[0][0]                    
__________________________________________________________________________________________________
separable_conv1d_384 (Separable (None, 100, 16)      320         add_187[0][0]                    
__________________________________________________________________________________________________
batch_normalization_344 (BatchN (None, 100, 16)      64          separable_conv1d_384[0][0]       
__________________________________________________________________________________________________
dropout_196 (Dropout)           (None, 100, 16)      0           batch_normalization_344[0][0]    
__________________________________________________________________________________________________
separable_conv1d_385 (Separable (None, 100, 16)      320         dropout_196[0][0]                
__________________________________________________________________________________________________
batch_normalization_345 (BatchN (None, 100, 16)      64          separable_conv1d_385[0][0]       
__________________________________________________________________________________________________
add_188 (Add)                   (None, 100, 16)      0           batch_normalization_345[0][0]    
                                                                 add_187[0][0]                    
__________________________________________________________________________________________________
separable_conv1d_386 (Separable (None, 100, 16)      320         add_188[0][0]                    
__________________________________________________________________________________________________
batch_normalization_346 (BatchN (None, 100, 16)      64          separable_conv1d_386[0][0]       
__________________________________________________________________________________________________
dropout_197 (Dropout)           (None, 100, 16)      0           batch_normalization_346[0][0]    
__________________________________________________________________________________________________
separable_conv1d_387 (Separable (None, 100, 16)      320         dropout_197[0][0]                
__________________________________________________________________________________________________
batch_normalization_347 (BatchN (None, 100, 16)      64          separable_conv1d_387[0][0]       
__________________________________________________________________________________________________
add_189 (Add)                   (None, 100, 16)      0           batch_normalization_347[0][0]    
                                                                 add_188[0][0]                    
__________________________________________________________________________________________________
separable_conv1d_388 (Separable (None, 100, 16)      320         add_189[0][0]                    
__________________________________________________________________________________________________
batch_normalization_348 (BatchN (None, 100, 16)      64          separable_conv1d_388[0][0]       
__________________________________________________________________________________________________
dropout_198 (Dropout)           (None, 100, 16)      0           batch_normalization_348[0][0]    
__________________________________________________________________________________________________
separable_conv1d_389 (Separable (None, 100, 16)      320         dropout_198[0][0]                
__________________________________________________________________________________________________
batch_normalization_349 (BatchN (None, 100, 16)      64          separable_conv1d_389[0][0]       
__________________________________________________________________________________________________
add_190 (Add)                   (None, 100, 16)      0           batch_normalization_349[0][0]    
                                                                 add_189[0][0]                    
__________________________________________________________________________________________________
separable_conv1d_390 (Separable (None, 100, 16)      320         add_190[0][0]                    
__________________________________________________________________________________________________
batch_normalization_350 (BatchN (None, 100, 16)      64          separable_conv1d_390[0][0]       
__________________________________________________________________________________________________
dropout_199 (Dropout)           (None, 100, 16)      0           batch_normalization_350[0][0]    
__________________________________________________________________________________________________
separable_conv1d_391 (Separable (None, 100, 16)      320         dropout_199[0][0]                
__________________________________________________________________________________________________
batch_normalization_351 (BatchN (None, 100, 16)      64          separable_conv1d_391[0][0]       
__________________________________________________________________________________________________
add_191 (Add)                   (None, 100, 16)      0           batch_normalization_351[0][0]    
                                                                 add_190[0][0]                    
__________________________________________________________________________________________________
separable_conv1d_392 (Separable (None, 100, 16)      320         add_191[0][0]                    
__________________________________________________________________________________________________
batch_normalization_352 (BatchN (None, 100, 16)      64          separable_conv1d_392[0][0]       
__________________________________________________________________________________________________
dropout_200 (Dropout)           (None, 100, 16)      0           batch_normalization_352[0][0]    
__________________________________________________________________________________________________
separable_conv1d_393 (Separable (None, 100, 16)      320         dropout_200[0][0]                
__________________________________________________________________________________________________
batch_normalization_353 (BatchN (None, 100, 16)      64          separable_conv1d_393[0][0]       
__________________________________________________________________________________________________
add_192 (Add)                   (None, 100, 16)      0           batch_normalization_353[0][0]    
                                                                 add_191[0][0]                    
__________________________________________________________________________________________________
separable_conv1d_394 (Separable (None, 100, 16)      320         add_192[0][0]                    
__________________________________________________________________________________________________
batch_normalization_354 (BatchN (None, 100, 16)      64          separable_conv1d_394[0][0]       
__________________________________________________________________________________________________
dropout_201 (Dropout)           (None, 100, 16)      0           batch_normalization_354[0][0]    
__________________________________________________________________________________________________
max_pooling1d_49 (MaxPooling1D) (None, 50, 16)       0           dropout_201[0][0]                
__________________________________________________________________________________________________
separable_conv1d_395 (Separable (None, 50, 16)       320         add_192[0][0]                    
__________________________________________________________________________________________________
add_193 (Add)                   (None, 50, 16)       0           max_pooling1d_49[0][0]           
                                                                 separable_conv1d_395[0][0]       
__________________________________________________________________________________________________
separable_conv1d_396 (Separable (None, 50, 16)       320         add_193[0][0]                    
__________________________________________________________________________________________________Check at: 2020年 06月 12日 星期五 06:18:08 CST

batch_normalization_355 (BatchN (None, 50, 16)       64          separable_conv1d_396[0][0]       
__________________________________________________________________________________________________
dropout_202 (Dropout)           (None, 50, 16)       0           batch_normalization_355[0][0]    
__________________________________________________________________________________________________
max_pooling1d_50 (MaxPooling1D) (None, 25, 16)       0           dropout_202[0][0]                
__________________________________________________________________________________________________
separable_conv1d_397 (Separable (None, 25, 16)       320         add_193[0][0]                    
__________________________________________________________________________________________________
add_194 (Add)                   (None, 25, 16)       0           max_pooling1d_50[0][0]           
                                                                 separable_conv1d_397[0][0]       
__________________________________________________________________________________________________
separable_conv1d_398 (Separable (None, 25, 16)       320         add_194[0][0]                    
__________________________________________________________________________________________________
batch_normalization_356 (BatchN (None, 25, 16)       64          separable_conv1d_398[0][0]       
__________________________________________________________________________________________________
dropout_203 (Dropout)           (None, 25, 16)       0           batch_normalization_356[0][0]    
__________________________________________________________________________________________________
max_pooling1d_51 (MaxPooling1D) (None, 13, 16)       0           dropout_203[0][0]                
__________________________________________________________________________________________________
separable_conv1d_399 (Separable (None, 13, 16)       320         add_194[0][0]                    
__________________________________________________________________________________________________
add_195 (Add)                   (None, 13, 16)       0           max_pooling1d_51[0][0]           
                                                                 separable_conv1d_399[0][0]       
__________________________________________________________________________________________________
separable_conv1d_400 (Separable (None, 13, 16)       320         add_195[0][0]                    
__________________________________________________________________________________________________
batch_normalization_357 (BatchN (None, 13, 16)       64          separable_conv1d_400[0][0]       
__________________________________________________________________________________________________
dropout_204 (Dropout)           (None, 13, 16)       0           batch_normalization_357[0][0]    
__________________________________________________________________________________________________
max_pooling1d_52 (MaxPooling1D) (None, 7, 16)        0           dropout_204[0][0]                
__________________________________________________________________________________________________
separable_conv1d_401 (Separable (None, 7, 16)        320         add_195[0][0]                    
__________________________________________________________________________________________________
add_196 (Add)                   (None, 7, 16)        0           max_pooling1d_52[0][0]           
                                                                 separable_conv1d_401[0][0]       
__________________________________________________________________________________________________
separable_conv1d_402 (Separable (None, 7, 16)        320         add_196[0][0]                    
__________________________________________________________________________________________________
batch_normalization_358 (BatchN (None, 7, 16)        64          separable_conv1d_402[0][0]       
__________________________________________________________________________________________________
dropout_205 (Dropout)           (None, 7, 16)        0           batch_normalization_358[0][0]    
__________________________________________________________________________________________________
max_pooling1d_53 (MaxPooling1D) (None, 4, 16)        0           dropout_205[0][0]                
__________________________________________________________________________________________________
separable_conv1d_403 (Separable (None, 4, 16)        320         add_196[0][0]                    
__________________________________________________________________________________________________
add_197 (Add)                   (None, 4, 16)        0           max_pooling1d_53[0][0]           
                                                                 separable_conv1d_403[0][0]       
__________________________________________________________________________________________________
separable_conv1d_404 (Separable (None, 4, 16)        320         add_197[0][0]                    
__________________________________________________________________________________________________
batch_normalization_359 (BatchN (None, 4, 16)        64          separable_conv1d_404[0][0]       
__________________________________________________________________________________________________
dropout_206 (Dropout)           (None, 4, 16)        0           batch_normalization_359[0][0]    
__________________________________________________________________________________________________
max_pooling1d_54 (MaxPooling1D) (None, 2, 16)        0           dropout_206[0][0]                
__________________________________________________________________________________________________
flatten_9 (Flatten)             (None, 32)           0           max_pooling1d_54[0][0]           
__________________________________________________________________________________________________
dense_17 (Dense)                (None, 128)          4224        flatten_9[0][0]                  
__________________________________________________________________________________________________
batch_normalization_360 (BatchN (None, 128)          512         dense_17[0][0]                   
__________________________________________________________________________________________________
dropout_207 (Dropout)           (None, 128)          0           batch_normalization_360[0][0]    
__________________________________________________________________________________________________
dense_18 (Dense)                (None, 10)           1290        dropout_207[0][0]                
==================================================================================================
Total params: 22,315
Trainable params: 20,811
Non-trainable params: 1,504
__________________________________________________________________________________________________

mode_sum_epochs_200_lr_0.0001
val_acc: 0.5035750768827588
GPU Free Memory List --> [5934, 519, 519, 519] MiB
GPU 0 was chosen.
__________________________________________________________________________________________________
Layer (type)                    Output Shape         Param #     Connected to                     
==================================================================================================
input_10 (InputLayer)           (None, 100, 1)       0                                            
__________________________________________________________________________________________________
separable_conv1d_406 (Separable (None, 100, 16)      33          input_10[0][0]                   
__________________________________________________________________________________________________
batch_normalization_361 (BatchN (None, 100, 16)      64          separable_conv1d_406[0][0]       
__________________________________________________________________________________________________
separable_conv1d_407 (Separable (None, 100, 16)      320         batch_normalization_361[0][0]    
__________________________________________________________________________________________________
batch_normalization_362 (BatchN (None, 100, 16)      64          separable_conv1d_407[0][0]       
__________________________________________________________________________________________________
dropout_208 (Dropout)           (None, 100, 16)      0           batch_normalization_362[0][0]    
__________________________________________________________________________________________________
separable_conv1d_408 (Separable (None, 100, 16)      320         dropout_208[0][0]                
__________________________________________________________________________________________________
batch_normalization_363 (BatchN (None, 100, 16)      64          separable_conv1d_408[0][0]       
__________________________________________________________________________________________________
add_199 (Add)                   (None, 100, 16)      0           batch_normalization_363[0][0]    
                                                                 batch_normalization_361[0][0]    
__________________________________________________________________________________________________
separable_conv1d_409 (Separable (None, 100, 16)      320         add_199[0][0]                    
__________________________________________________________________________________________________
batch_normalization_364 (BatchN (None, 100, 16)      64          separable_conv1d_409[0][0]       
__________________________________________________________________________________________________
dropout_209 (Dropout)           (None, 100, 16)      0           batch_normalization_364[0][0]    
__________________________________________________________________________________________________
separable_conv1d_410 (Separable (None, 100, 16)      320         dropout_209[0][0]                
__________________________________________________________________________________________________
batch_normalization_365 (BatchN (None, 100, 16)      64          separable_conv1d_410[0][0]       
__________________________________________________________________________________________________
add_200 (Add)                   (None, 100, 16)      0           batch_normalization_365[0][0]    
                                                                 add_199[0][0]                    
__________________________________________________________________________________________________
separable_conv1d_411 (Separable (None, 100, 16)      320         add_200[0][0]                    
__________________________________________________________________________________________________
batch_normalization_366 (BatchN (None, 100, 16)      64          separable_conv1d_411[0][0]       
__________________________________________________________________________________________________
dropout_210 (Dropout)           (None, 100, 16)      0           batch_normalization_366[0][0]    
__________________________________________________________________________________________________
separable_conv1d_412 (Separable (None, 100, 16)      320         dropout_210[0][0]                
__________________________________________________________________________________________________
batch_normalization_367 (BatchN (None, 100, 16)      64          separable_conv1d_412[0][0]       
__________________________________________________________________________________________________
add_201 (Add)                   (None, 100, 16)      0           batch_normalization_367[0][0]    
                                                                 add_200[0][0]                    
__________________________________________________________________________________________________
separable_conv1d_413 (Separable (None, 100, 16)      320         add_201[0][0]                    
__________________________________________________________________________________________________
batch_normalization_368 (BatchN (None, 100, 16)      64          separable_conv1d_413[0][0]       
__________________________________________________________________________________________________
dropout_211 (Dropout)           (None, 100, 16)      0           batch_normalization_368[0][0]    
__________________________________________________________________________________________________
separable_conv1d_414 (Separable (None, 100, 16)      320         dropout_211[0][0]                
__________________________________________________________________________________________________
batch_normalization_369 (BatchN (None, 100, 16)      64          separable_conv1d_414[0][0]       
__________________________________________________________________________________________________
add_202 (Add)                   (None, 100, 16)      0           batch_normalization_369[0][0]    
                                                                 add_201[0][0]                    
__________________________________________________________________________________________________
separable_conv1d_415 (Separable (None, 100, 16)      320         add_202[0][0]                    
__________________________________________________________________________________________________
batch_normalization_370 (BatchN (None, 100, 16)      64          separable_conv1d_415[0][0]       
__________________________________________________________________________________________________
dropout_212 (Dropout)           (None, 100, 16)      0           batch_normalization_370[0][0]    
__________________________________________________________________________________________________
separable_conv1d_416 (Separable (None, 100, 16)      320         dropout_212[0][0]                
__________________________________________________________________________________________________
batch_normalization_371 (BatchN (None, 100, 16)      64          separable_conv1d_416[0][0]       
__________________________________________________________________________________________________
add_203 (Add)                   (None, 100, 16)      0           batch_normalization_371[0][0]    
                                                                 add_202[0][0]                    
__________________________________________________________________________________________________
separable_conv1d_417 (Separable (None, 100, 16)      320         add_203[0][0]                    
__________________________________________________________________________________________________
batch_normalization_372 (BatchN (None, 100, 16)      64          separable_conv1d_417[0][0]       
__________________________________________________________________________________________________
dropout_213 (Dropout)           (None, 100, 16)      0           batch_normalization_372[0][0]    
__________________________________________________________________________________________________
separable_conv1d_418 (Separable (None, 100, 16)      320         dropout_213[0][0]                
__________________________________________________________________________________________________
batch_normalization_373 (BatchN (None, 100, 16)      64          separable_conv1d_418[0][0]       
__________________________________________________________________________________________________
add_204 (Add)                   (None, 100, 16)      0           batch_normalization_373[0][0]    
                                                                 add_203[0][0]                    
__________________________________________________________________________________________________
separable_conv1d_419 (Separable (None, 100, 16)      320         add_204[0][0]                    
__________________________________________________________________________________________________
batch_normalization_374 (BatchN (None, 100, 16)      64          separable_conv1d_419[0][0]       
__________________________________________________________________________________________________
dropout_214 (Dropout)           (None, 100, 16)      0           batch_normalization_374[0][0]    
__________________________________________________________________________________________________
separable_conv1d_420 (Separable (None, 100, 16)      320         dropout_214[0][0]                
__________________________________________________________________________________________________
batch_normalization_375 (BatchN (None, 100, 16)      64          separable_conv1d_420[0][0]       
__________________________________________________________________________________________________
add_205 (Add)                   (None, 100, 16)      0           batch_normalization_375[0][0]    
                                                                 add_204[0][0]                    
__________________________________________________________________________________________________
separable_conv1d_421 (Separable (None, 100, 16)      320         add_205[0][0]                    
__________________________________________________________________________________________________
batch_normalization_376 (BatchN (None, 100, 16)      64          separable_conv1d_421[0][0]       
__________________________________________________________________________________________________
dropout_215 (Dropout)           (None, 100, 16)      0           batch_normalization_376[0][0]    
__________________________________________________________________________________________________
separable_conv1d_422 (Separable (None, 100, 16)      320         dropout_215[0][0]                
__________________________________________________________________________________________________
batch_normalization_377 (BatchN (None, 100, 16)      64          separable_conv1d_422[0][0]       
__________________________________________________________________________________________________
add_206 (Add)                   (None, 100, 16)      0           batch_normalization_377[0][0]    
                                                                 add_205[0][0]                    
__________________________________________________________________________________________________
separable_conv1d_423 (Separable (None, 100, 16)      320         add_206[0][0]                    
__________________________________________________________________________________________________
batch_normalization_378 (BatchN (None, 100, 16)      64          separable_conv1d_423[0][0]       
__________________________________________________________________________________________________
dropout_216 (Dropout)           (None, 100, 16)      0           batch_normalization_378[0][0]    
__________________________________________________________________________________________________
separable_conv1d_424 (Separable (None, 100, 16)      320         dropout_216[0][0]                
__________________________________________________________________________________________________
batch_normalization_379 (BatchN (None, 100, 16)      64          separable_conv1d_424[0][0]       
__________________________________________________________________________________________________
add_207 (Add)                   (None, 100, 16)      0           batch_normalization_379[0][0]    
                                                                 add_206[0][0]                    
__________________________________________________________________________________________________
separable_conv1d_425 (Separable (None, 100, 16)      320         add_207[0][0]                    
__________________________________________________________________________________________________
batch_normalization_380 (BatchN (None, 100, 16)      64          separable_conv1d_425[0][0]       
__________________________________________________________________________________________________
dropout_217 (Dropout)           (None, 100, 16)      0           batch_normalization_380[0][0]    
__________________________________________________________________________________________________
separable_conv1d_426 (Separable (None, 100, 16)      320         dropout_217[0][0]                
__________________________________________________________________________________________________
batch_normalization_381 (BatchN (None, 100, 16)      64          separable_conv1d_426[0][0]       
__________________________________________________________________________________________________
add_208 (Add)                   (None, 100, 16)      0           batch_normalization_381[0][0]    
                                                                 add_207[0][0]                    
__________________________________________________________________________________________________
separable_conv1d_427 (Separable (None, 100, 16)      320         add_208[0][0]                    
__________________________________________________________________________________________________
batch_normalization_382 (BatchN (None, 100, 16)      64          separable_conv1d_427[0][0]       
__________________________________________________________________________________________________
dropout_218 (Dropout)           (None, 100, 16)      0           batch_normalization_382[0][0]    
__________________________________________________________________________________________________
separable_conv1d_428 (Separable (None, 100, 16)      320         dropout_218[0][0]                
__________________________________________________________________________________________________
batch_normalization_383 (BatchN (None, 100, 16)      64          separable_conv1d_428[0][0]       
__________________________________________________________________________________________________
add_209 (Add)                   (None, 100, 16)      0           batch_normalization_383[0][0]    
                                                                 add_208[0][0]                    
__________________________________________________________________________________________________
separable_conv1d_429 (Separable (None, 100, 16)      320         add_209[0][0]                    
__________________________________________________________________________________________________
batch_normalization_384 (BatchN (None, 100, 16)      64          separable_conv1d_429[0][0]       
__________________________________________________________________________________________________
dropout_219 (Dropout)           (None, 100, 16)      0           batch_normalization_384[0][0]    
__________________________________________________________________________________________________
separable_conv1d_430 (Separable (None, 100, 16)      320         dropout_219[0][0]                
__________________________________________________________________________________________________
batch_normalization_385 (BatchN (None, 100, 16)      64          separable_conv1d_430[0][0]       
__________________________________________________________________________________________________
add_210 (Add)                   (None, 100, 16)      0           batch_normalization_385[0][0]    
                                                                 add_209[0][0]                    
__________________________________________________________________________________________________
separable_conv1d_431 (Separable (None, 100, 16)      320         add_210[0][0]                    
__________________________________________________________________________________________________
batch_normalization_386 (BatchN (None, 100, 16)      64          separable_conv1d_431[0][0]       
__________________________________________________________________________________________________
dropout_220 (Dropout)           (None, 100, 16)      0           batch_normalization_386[0][0]    
__________________________________________________________________________________________________
separable_conv1d_432 (Separable (None, 100, 16)      320         dropout_220[0][0]                
__________________________________________________________________________________________________
batch_normalization_387 (BatchN (None, 100, 16)      64          separable_conv1d_432[0][0]       
__________________________________________________________________________________________________
add_211 (Add)                   (None, 100, 16)      0           batch_normalization_387[0][0]    
                                                                 add_210[0][0]                    
__________________________________________________________________________________________________
separable_conv1d_433 (Separable (None, 100, 16)      320         add_211[0][0]                    
__________________________________________________________________________________________________
batch_normalization_388 (BatchN (None, 100, 16)      64          separable_conv1d_433[0][0]       
__________________________________________________________________________________________________
dropout_221 (Dropout)           (None, 100, 16)      0           batch_normalization_388[0][0]    
__________________________________________________________________________________________________
separable_conv1d_434 (Separable (None, 100, 16)      320         dropout_221[0][0]                
__________________________________________________________________________________________________
batch_normalization_389 (BatchN (None, 100, 16)      64          separable_conv1d_434[0][0]       
__________________________________________________________________________________________________
add_212 (Add)                   (None, 100, 16)      0           batch_normalization_389[0][0]    
                                                                 add_211[0][0]                    
__________________________________________________________________________________________________
separable_conv1d_435 (Separable (None, 100, 16)      320         add_212[0][0]                    
__________________________________________________________________________________________________
batch_normalization_390 (BatchN (None, 100, 16)      64          separable_conv1d_435[0][0]       
__________________________________________________________________________________________________
dropout_222 (Dropout)           (None, 100, 16)      0           batch_normalization_390[0][0]    
__________________________________________________________________________________________________
separable_conv1d_436 (Separable (None, 100, 16)      320         dropout_222[0][0]                
__________________________________________________________________________________________________
batch_normalization_391 (BatchN (None, 100, 16)      64          separable_conv1d_436[0][0]       
__________________________________________________________________________________________________
add_213 (Add)                   (None, 100, 16)      0           batch_normalization_391[0][0]    
                                                                 add_212[0][0]                    
__________________________________________________________________________________________________
separable_conv1d_437 (Separable (None, 100, 16)      320         add_213[0][0]                    
__________________________________________________________________________________________________
batch_normalization_392 (BatchN (None, 100, 16)      64          separable_conv1d_437[0][0]       
__________________________________________________________________________________________________
dropout_223 (Dropout)           (None, 100, 16)      0           batch_normalization_392[0][0]    
__________________________________________________________________________________________________
separable_conv1d_438 (Separable (None, 100, 16)      320         dropout_223[0][0]                
__________________________________________________________________________________________________
batch_normalization_393 (BatchN (None, 100, 16)      64          separable_conv1d_438[0][0]       
__________________________________________________________________________________________________
add_214 (Add)                   (None, 100, 16)      0           batch_normalization_393[0][0]    
                                                                 add_213[0][0]                    
__________________________________________________________________________________________________
separable_conv1d_439 (Separable (None, 100, 16)      320         add_214[0][0]                    
__________________________________________________________________________________________________
batch_normalization_394 (BatchN (None, 100, 16)      64          separable_conv1d_439[0][0]       
__________________________________________________________________________________________________
dropout_224 (Dropout)           (None, 100, 16)      0           batch_normalization_394[0][0]    
__________________________________________________________________________________________________
max_pooling1d_55 (MaxPooling1D) (None, 50, 16)       0           dropout_224[0][0]                
__________________________________________________________________________________________________
separable_conv1d_440 (Separable (None, 50, 16)       320         add_214[0][0]                    
__________________________________________________________________________________________________
add_215 (Add)                   (None, 50, 16)       0           max_pooling1d_55[0][0]           
                                                                 separable_conv1d_440[0][0]       
__________________________________________________________________________________________________
separable_conv1d_441 (Separable (None, 50, 16)       320         add_215[0][0]                    
__________________________________________________________________________________________________
batch_normalization_395 (BatchN (None, 50, 16)       64          separable_conv1d_441[0][0]       
__________________________________________________________________________________________________
dropout_225 (Dropout)           (None, 50, 16)       0           batch_normalization_395[0][0]    
__________________________________________________________________________________________________
max_pooling1d_56 (MaxPooling1D) (None, 25, 16)       0           dropout_225[0][0]                
__________________________________________________________________________________________________
separable_conv1d_442 (Separable (None, 25, 16)       320         add_215[0][0]                    
__________________________________________________________________________________________________
add_216 (Add)                   (None, 25, 16)       0           max_pooling1d_56[0][0]           
                                                                 separable_conv1d_442[0][0]       
__________________________________________________________________________________________________
separable_conv1d_443 (Separable (None, 25, 16)       320         add_216[0][0]                    
__________________________________________________________________________________________________
batch_normalization_396 (BatchN (None, 25, 16)       64          separable_conv1d_443[0][0]       
__________________________________________________________________________________________________
dropout_226 (Dropout)           (None, 25, 16)       0           batch_normalization_396[0][0]    
__________________________________________________________________________________________________
max_pooling1d_57 (MaxPooling1D) (None, 13, 16)       0           dropout_226[0][0]                
__________________________________________________________________________________________________
separable_conv1d_444 (Separable (None, 13, 16)       320         add_216[0][0]                    
__________________________________________________________________________________________________
add_217 (Add)                   (None, 13, 16)       0           max_pooling1d_57[0][0]           
                                                                 separable_conv1d_444[0][0]       
__________________________________________________________________________________________________
separable_conv1d_445 (Separable (None, 13, 16)       320         add_217[0][0]                    
__________________________________________________________________________________________________
batch_normalization_397 (BatchN (None, 13, 16)       64          separable_conv1d_445[0][0]       
__________________________________________________________________________________________________
dropout_227 (Dropout)           (None, 13, 16)       0           batch_normalization_397[0][0]    
__________________________________________________________________________________________________
max_pooling1d_58 (MaxPooling1D) (None, 7, 16)        0           dropout_227[0][0]                
__________________________________________________________________________________________________
separable_conv1d_446 (Separable (None, 7, 16)        320         add_217[0][0]                    
__________________________________________________________________________________________________
add_218 (Add)                   (None, 7, 16)        0           max_pooling1d_58[0][0]           
                                                                 separable_conv1d_446[0][0]       
__________________________________________________________________________________________________
separable_conv1d_447 (Separable (None, 7, 16)        320         add_218[0][0]                    
__________________________________________________________________________________________________
batch_normalization_398 (BatchN (None, 7, 16)        64          separable_conv1d_447[0][0]       
__________________________________________________________________________________________________
dropout_228 (Dropout)           (None, 7, 16)        0           batch_normalization_398[0][0]    
__________________________________________________________________________________________________
max_pooling1d_59 (MaxPooling1D) (None, 4, 16)        0           dropout_228[0][0]                
__________________________________________________________________________________________________
separable_conv1d_448 (Separable (None, 4, 16)        320         add_218[0][0]                    
__________________________________________________________________________________________________
add_219 (Add)                   (None, 4, 16)        0           max_pooling1d_59[0][0]           
                                                                 separable_conv1d_448[0][0]       
__________________________________________________________________________________________________
separable_conv1d_449 (Separable (None, 4, 16)        320         add_219[0][0]                    
__________________________________________________________________________________________________
batch_normalization_399 (BatchN (None, 4, 16)        64          separable_conv1d_449[0][0]       
__________________________________________________________________________________________________
dropout_229 (Dropout)           (None, 4, 16)        0           batch_normalization_399[0][0]    
__________________________________________________________________________________________________
max_pooling1d_60 (MaxPooling1D) (None, 2, 16)        0           dropout_229[0][0]                
__________________________________________________________________________________________________
flatten_10 (Flatten)            (None, 32)           0           max_pooling1d_60[0][0]           
__________________________________________________________________________________________________
dense_19 (Dense)                (None, 128)          4224        flatten_10[0][0]                 
__________________________________________________________________________________________________
batch_normalization_400 (BatchN (None, 128)          512         dense_19[0][0]                   
__________________________________________________________________________________________________
dropout_230 (Dropout)           (None, 128)          0           batch_normalization_400[0][0]    
__________________________________________________________________________________________________
dense_20 (Dense)                (None, 10)           1290        dropout_230[0][0]                
==================================================================================================
Total params: 22,315
Trainable params: 20,811
Non-trainable params: 1,504
__________________________________________________________________________________________________

mode_sum_epochs_200_lr_1e-05
val_acc: 0.4346271705822268

The Best Hypers are: padding_81_0.01, Best val_acc is: 0.633810010031855
