
x_train shape: (9790, 300, 1)
y_train shape: (9790, 10)
x_test shape: (2448, 300, 1)
y_test shape: (2448, 10)
Check at: 2020年 06月 12日 星期五 08:50:57 CST
GPU Free Memory List --> [5934, 519, 519, 519] MiB
GPU 0 was chosen.
__________________________________________________________________________________________________
Layer (type)                    Output Shape         Param #     Connected to                     
==================================================================================================
input_1 (InputLayer)            (None, 300, 1)       0                                            
__________________________________________________________________________________________________
separable_conv1d_1 (SeparableCo (None, 300, 16)      33          input_1[0][0]                    
__________________________________________________________________________________________________
batch_normalization_1 (BatchNor (None, 300, 16)      64          separable_conv1d_1[0][0]         
__________________________________________________________________________________________________
separable_conv1d_2 (SeparableCo (None, 300, 16)      320         batch_normalization_1[0][0]      
__________________________________________________________________________________________________
batch_normalization_2 (BatchNor (None, 300, 16)      64          separable_conv1d_2[0][0]         
__________________________________________________________________________________________________
dropout_1 (Dropout)             (None, 300, 16)      0           batch_normalization_2[0][0]      
__________________________________________________________________________________________________
separable_conv1d_3 (SeparableCo (None, 300, 16)      320         dropout_1[0][0]                  
__________________________________________________________________________________________________
batch_normalization_3 (BatchNor (None, 300, 16)      64          separable_conv1d_3[0][0]         
__________________________________________________________________________________________________
add_1 (Add)                     (None, 300, 16)      0           batch_normalization_3[0][0]      
                                                                 batch_normalization_1[0][0]      
__________________________________________________________________________________________________
separable_conv1d_4 (SeparableCo (None, 300, 16)      320         add_1[0][0]                      
__________________________________________________________________________________________________
batch_normalization_4 (BatchNor (None, 300, 16)      64          separable_conv1d_4[0][0]         
__________________________________________________________________________________________________
dropout_2 (Dropout)             (None, 300, 16)      0           batch_normalization_4[0][0]      
__________________________________________________________________________________________________
separable_conv1d_5 (SeparableCo (None, 300, 16)      320         dropout_2[0][0]                  
__________________________________________________________________________________________________
batch_normalization_5 (BatchNor (None, 300, 16)      64          separable_conv1d_5[0][0]         
__________________________________________________________________________________________________
add_2 (Add)                     (None, 300, 16)      0           batch_normalization_5[0][0]      
                                                                 add_1[0][0]                      
__________________________________________________________________________________________________
separable_conv1d_6 (SeparableCo (None, 300, 16)      320         add_2[0][0]                      
__________________________________________________________________________________________________
batch_normalization_6 (BatchNor (None, 300, 16)      64          separable_conv1d_6[0][0]         
__________________________________________________________________________________________________
dropout_3 (Dropout)             (None, 300, 16)      0           batch_normalization_6[0][0]      
__________________________________________________________________________________________________
separable_conv1d_7 (SeparableCo (None, 300, 16)      320         dropout_3[0][0]                  
__________________________________________________________________________________________________
batch_normalization_7 (BatchNor (None, 300, 16)      64          separable_conv1d_7[0][0]         
__________________________________________________________________________________________________
add_3 (Add)                     (None, 300, 16)      0           batch_normalization_7[0][0]      
                                                                 add_2[0][0]                      
__________________________________________________________________________________________________
separable_conv1d_8 (SeparableCo (None, 300, 16)      320         add_3[0][0]                      
__________________________________________________________________________________________________
batch_normalization_8 (BatchNor (None, 300, 16)      64          separable_conv1d_8[0][0]         
__________________________________________________________________________________________________
dropout_4 (Dropout)             (None, 300, 16)      0           batch_normalization_8[0][0]      
__________________________________________________________________________________________________
separable_conv1d_9 (SeparableCo (None, 300, 16)      320         dropout_4[0][0]                  
__________________________________________________________________________________________________
batch_normalization_9 (BatchNor (None, 300, 16)      64          separable_conv1d_9[0][0]         
__________________________________________________________________________________________________
add_4 (Add)                     (None, 300, 16)      0           batch_normalization_9[0][0]      
                                                                 add_3[0][0]                      
__________________________________________________________________________________________________
separable_conv1d_10 (SeparableC (None, 300, 16)      320         add_4[0][0]                      
__________________________________________________________________________________________________
batch_normalization_10 (BatchNo (None, 300, 16)      64          separable_conv1d_10[0][0]        
__________________________________________________________________________________________________
dropout_5 (Dropout)             (None, 300, 16)      0           batch_normalization_10[0][0]     
__________________________________________________________________________________________________
separable_conv1d_11 (SeparableC (None, 300, 16)      320         dropout_5[0][0]                  
__________________________________________________________________________________________________
batch_normalization_11 (BatchNo (None, 300, 16)      64          separable_conv1d_11[0][0]        
__________________________________________________________________________________________________
add_5 (Add)                     (None, 300, 16)      0           batch_normalization_11[0][0]     
                                                                 add_4[0][0]                      
__________________________________________________________________________________________________
separable_conv1d_12 (SeparableC (None, 300, 16)      320         add_5[0][0]                      
__________________________________________________________________________________________________
batch_normalization_12 (BatchNo (None, 300, 16)      64          separable_conv1d_12[0][0]        
__________________________________________________________________________________________________
dropout_6 (Dropout)             (None, 300, 16)      0           batch_normalization_12[0][0]     
__________________________________________________________________________________________________
separable_conv1d_13 (SeparableC (None, 300, 16)      320         dropout_6[0][0]                  
__________________________________________________________________________________________________
batch_normalization_13 (BatchNo (None, 300, 16)      64          separable_conv1d_13[0][0]        
__________________________________________________________________________________________________
add_6 (Add)                     (None, 300, 16)      0           batch_normalization_13[0][0]     
                                                                 add_5[0][0]                      
__________________________________________________________________________________________________
separable_conv1d_14 (SeparableC (None, 300, 16)      320         add_6[0][0]                      
__________________________________________________________________________________________________
batch_normalization_14 (BatchNo (None, 300, 16)      64          separable_conv1d_14[0][0]        
__________________________________________________________________________________________________
dropout_7 (Dropout)             (None, 300, 16)      0           batch_normalization_14[0][0]     
__________________________________________________________________________________________________
separable_conv1d_15 (SeparableC (None, 300, 16)      320         dropout_7[0][0]                  
__________________________________________________________________________________________________
batch_normalization_15 (BatchNo (None, 300, 16)      64          separable_conv1d_15[0][0]        
__________________________________________________________________________________________________
add_7 (Add)                     (None, 300, 16)      0           batch_normalization_15[0][0]     
                                                                 add_6[0][0]                      
__________________________________________________________________________________________________
separable_conv1d_16 (SeparableC (None, 300, 16)      320         add_7[0][0]                      
__________________________________________________________________________________________________
batch_normalization_16 (BatchNo (None, 300, 16)      64          separable_conv1d_16[0][0]        
__________________________________________________________________________________________________
dropout_8 (Dropout)             (None, 300, 16)      0           batch_normalization_16[0][0]     
__________________________________________________________________________________________________
separable_conv1d_17 (SeparableC (None, 300, 16)      320         dropout_8[0][0]                  
__________________________________________________________________________________________________
batch_normalization_17 (BatchNo (None, 300, 16)      64          separable_conv1d_17[0][0]        
__________________________________________________________________________________________________
add_8 (Add)                     (None, 300, 16)      0           batch_normalization_17[0][0]     
                                                                 add_7[0][0]                      
__________________________________________________________________________________________________
separable_conv1d_18 (SeparableC (None, 300, 16)      320         add_8[0][0]                      
__________________________________________________________________________________________________
batch_normalization_18 (BatchNo (None, 300, 16)      64          separable_conv1d_18[0][0]        
__________________________________________________________________________________________________
dropout_9 (Dropout)             (None, 300, 16)      0           batch_normalization_18[0][0]     
__________________________________________________________________________________________________
separable_conv1d_19 (SeparableC (None, 300, 16)      320         dropout_9[0][0]                  
__________________________________________________________________________________________________
batch_normalization_19 (BatchNo (None, 300, 16)      64          separable_conv1d_19[0][0]        
__________________________________________________________________________________________________
add_9 (Add)                     (None, 300, 16)      0           batch_normalization_19[0][0]     
                                                                 add_8[0][0]                      
__________________________________________________________________________________________________
separable_conv1d_20 (SeparableC (None, 300, 16)      320         add_9[0][0]                      
__________________________________________________________________________________________________
batch_normalization_20 (BatchNo (None, 300, 16)      64          separable_conv1d_20[0][0]        
__________________________________________________________________________________________________
dropout_10 (Dropout)            (None, 300, 16)      0           batch_normalization_20[0][0]     
__________________________________________________________________________________________________
separable_conv1d_21 (SeparableC (None, 300, 16)      320         dropout_10[0][0]                 
__________________________________________________________________________________________________
batch_normalization_21 (BatchNo (None, 300, 16)      64          separable_conv1d_21[0][0]        
__________________________________________________________________________________________________
add_10 (Add)                    (None, 300, 16)      0           batch_normalization_21[0][0]     
                                                                 add_9[0][0]                      
__________________________________________________________________________________________________
separable_conv1d_22 (SeparableC (None, 300, 16)      320         add_10[0][0]                     
__________________________________________________________________________________________________
batch_normalization_22 (BatchNo (None, 300, 16)      64          separable_conv1d_22[0][0]        
__________________________________________________________________________________________________
dropout_11 (Dropout)            (None, 300, 16)      0           batch_normalization_22[0][0]     
__________________________________________________________________________________________________
separable_conv1d_23 (SeparableC (None, 300, 16)      320         dropout_11[0][0]                 
__________________________________________________________________________________________________
batch_normalization_23 (BatchNo (None, 300, 16)      64          separable_conv1d_23[0][0]        
__________________________________________________________________________________________________
add_11 (Add)                    (None, 300, 16)      0           batch_normalization_23[0][0]     
                                                                 add_10[0][0]                     
__________________________________________________________________________________________________
separable_conv1d_24 (SeparableC (None, 300, 16)      320         add_11[0][0]                     
__________________________________________________________________________________________________
batch_normalization_24 (BatchNo (None, 300, 16)      64          separable_conv1d_24[0][0]        
__________________________________________________________________________________________________
dropout_12 (Dropout)            (None, 300, 16)      0           batch_normalization_24[0][0]     
__________________________________________________________________________________________________
separable_conv1d_25 (SeparableC (None, 300, 16)      320         dropout_12[0][0]                 
__________________________________________________________________________________________________
batch_normalization_25 (BatchNo (None, 300, 16)      64          separable_conv1d_25[0][0]        
__________________________________________________________________________________________________
add_12 (Add)                    (None, 300, 16)      0           batch_normalization_25[0][0]     
                                                                 add_11[0][0]                     
__________________________________________________________________________________________________
separable_conv1d_26 (SeparableC (None, 300, 16)      320         add_12[0][0]                     
__________________________________________________________________________________________________
batch_normalization_26 (BatchNo (None, 300, 16)      64          separable_conv1d_26[0][0]        
__________________________________________________________________________________________________
dropout_13 (Dropout)            (None, 300, 16)      0           batch_normalization_26[0][0]     
__________________________________________________________________________________________________
separable_conv1d_27 (SeparableC (None, 300, 16)      320         dropout_13[0][0]                 
__________________________________________________________________________________________________
batch_normalization_27 (BatchNo (None, 300, 16)      64          separable_conv1d_27[0][0]        
__________________________________________________________________________________________________
add_13 (Add)                    (None, 300, 16)      0           batch_normalization_27[0][0]     
                                                                 add_12[0][0]                     
__________________________________________________________________________________________________
separable_conv1d_28 (SeparableC (None, 300, 16)      320         add_13[0][0]                     
__________________________________________________________________________________________________
batch_normalization_28 (BatchNo (None, 300, 16)      64          separable_conv1d_28[0][0]        
__________________________________________________________________________________________________
dropout_14 (Dropout)            (None, 300, 16)      0           batch_normalization_28[0][0]     
__________________________________________________________________________________________________
separable_conv1d_29 (SeparableC (None, 300, 16)      320         dropout_14[0][0]                 
__________________________________________________________________________________________________
batch_normalization_29 (BatchNo (None, 300, 16)      64          separable_conv1d_29[0][0]        
__________________________________________________________________________________________________
add_14 (Add)                    (None, 300, 16)      0           batch_normalization_29[0][0]     
                                                                 add_13[0][0]                     
__________________________________________________________________________________________________
separable_conv1d_30 (SeparableC (None, 300, 16)      320         add_14[0][0]                     
__________________________________________________________________________________________________
batch_normalization_30 (BatchNo (None, 300, 16)      64          separable_conv1d_30[0][0]        
__________________________________________________________________________________________________
dropout_15 (Dropout)            (None, 300, 16)      0           batch_normalization_30[0][0]     
__________________________________________________________________________________________________
separable_conv1d_31 (SeparableC (None, 300, 16)      320         dropout_15[0][0]                 
__________________________________________________________________________________________________
batch_normalization_31 (BatchNo (None, 300, 16)      64          separable_conv1d_31[0][0]        
__________________________________________________________________________________________________
add_15 (Add)                    (None, 300, 16)      0           batch_normalization_31[0][0]     
                                                                 add_14[0][0]                     
__________________________________________________________________________________________________
separable_conv1d_32 (SeparableC (None, 300, 16)      320         add_15[0][0]                     
__________________________________________________________________________________________________
batch_normalization_32 (BatchNo (None, 300, 16)      64          separable_conv1d_32[0][0]        
__________________________________________________________________________________________________
dropout_16 (Dropout)            (None, 300, 16)      0           batch_normalization_32[0][0]     
__________________________________________________________________________________________________
separable_conv1d_33 (SeparableC (None, 300, 16)      320         dropout_16[0][0]                 
__________________________________________________________________________________________________
batch_normalization_33 (BatchNo (None, 300, 16)      64          separable_conv1d_33[0][0]        
__________________________________________________________________________________________________
add_16 (Add)                    (None, 300, 16)      0           batch_normalization_33[0][0]     
                                                                 add_15[0][0]                     
__________________________________________________________________________________________________
separable_conv1d_34 (SeparableC (None, 300, 16)      320         add_16[0][0]                     
__________________________________________________________________________________________________
batch_normalization_34 (BatchNo (None, 300, 16)      64          separable_conv1d_34[0][0]        
__________________________________________________________________________________________________
dropout_17 (Dropout)            (None, 300, 16)      0           batch_normalization_34[0][0]     
__________________________________________________________________________________________________
max_pooling1d_1 (MaxPooling1D)  (None, 150, 16)      0           dropout_17[0][0]                 
__________________________________________________________________________________________________
separable_conv1d_35 (SeparableC (None, 150, 16)      320         add_16[0][0]                     
__________________________________________________________________________________________________
add_17 (Add)                    (None, 150, 16)      0           max_pooling1d_1[0][0]            
                                                                 separable_conv1d_35[0][0]        
__________________________________________________________________________________________________
separable_conv1d_36 (SeparableC (None, 150, 16)      320         add_17[0][0]                     
__________________________________________________________________________________________________
batch_normalization_35 (BatchNo (None, 150, 16)      64          separable_conv1d_36[0][0]        
__________________________________________________________________________________________________
dropout_18 (Dropout)            (None, 150, 16)      0           batch_normalization_35[0][0]     
__________________________________________________________________________________________________
max_pooling1d_2 (MaxPooling1D)  (None, 75, 16)       0           dropout_18[0][0]                 
__________________________________________________________________________________________________
separable_conv1d_37 (SeparableC (None, 75, 16)       320         add_17[0][0]                     
__________________________________________________________________________________________________
add_18 (Add)                    (None, 75, 16)       0           max_pooling1d_2[0][0]            
                                                                 separable_conv1d_37[0][0]        
__________________________________________________________________________________________________
separable_conv1d_38 (SeparableC (None, 75, 16)       320         add_18[0][0]                     
__________________________________________________________________________________________________
batch_normalization_36 (BatchNo (None, 75, 16)       64          separable_conv1d_38[0][0]        
__________________________________________________________________________________________________
dropout_19 (Dropout)            (None, 75, 16)       0           batch_normalization_36[0][0]     
__________________________________________________________________________________________________
max_pooling1d_3 (MaxPooling1D)  (None, 38, 16)       0           dropout_19[0][0]                 
__________________________________________________________________________________________________
separable_conv1d_39 (SeparableC (None, 38, 16)       320         add_18[0][0]                     
__________________________________________________________________________________________________
add_19 (Add)                    (None, 38, 16)       0           max_pooling1d_3[0][0]            
                                                                 separable_conv1d_39[0][0]        
__________________________________________________________________________________________________
separable_conv1d_40 (SeparableC (None, 38, 16)       320         add_19[0][0]                     
__________________________________________________________________________________________________
batch_normalization_37 (BatchNo (None, 38, 16)       64          separable_conv1d_40[0][0]        
__________________________________________________________________________________________________
dropout_20 (Dropout)            (None, 38, 16)       0           batch_normalization_37[0][0]     
__________________________________________________________________________________________________
max_pooling1d_4 (MaxPooling1D)  (None, 19, 16)       0           dropout_20[0][0]                 
__________________________________________________________________________________________________
separable_conv1d_41 (SeparableC (None, 19, 16)       320         add_19[0][0]                     
__________________________________________________________________________________________________
add_20 (Add)                    (None, 19, 16)       0           max_pooling1d_4[0][0]            
                                                                 separable_conv1d_41[0][0]        
__________________________________________________________________________________________________
separable_conv1d_42 (SeparableC (None, 19, 16)       320         add_20[0][0]                     
__________________________________________________________________________________________________
batch_normalization_38 (BatchNo (None, 19, 16)       64          separable_conv1d_42[0][0]        
__________________________________________________________________________________________________
dropout_21 (Dropout)            (None, 19, 16)       0           batch_normalization_38[0][0]     
__________________________________________________________________________________________________
max_pooling1d_5 (MaxPooling1D)  (None, 10, 16)       0           dropout_21[0][0]                 
__________________________________________________________________________________________________
separable_conv1d_43 (SeparableC (None, 10, 16)       320         add_20[0][0]                     
__________________________________________________________________________________________________
add_21 (Add)                    (None, 10, 16)       0           max_pooling1d_5[0][0]            
                                                                 separable_conv1d_43[0][0]        
__________________________________________________________________________________________________
separable_conv1d_44 (SeparableC (None, 10, 16)       320         add_21[0][0]                     
__________________________________________________________________________________________________
batch_normalization_39 (BatchNo (None, 10, 16)       64          separable_conv1d_44[0][0]        
__________________________________________________________________________________________________
dropout_22 (Dropout)            (None, 10, 16)       0           batch_normalization_39[0][0]     
__________________________________________________________________________________________________
max_pooling1d_6 (MaxPooling1D)  (None, 5, 16)        0           dropout_22[0][0]                 
__________________________________________________________________________________________________
flatten_1 (Flatten)             (None, 80)           0           max_pooling1d_6[0][0]            
__________________________________________________________________________________________________
dense_1 (Dense)                 (None, 128)          10368       flatten_1[0][0]                  
__________________________________________________________________________________________________
batch_normalization_40 (BatchNo (None, 128)          512         dense_1[0][0]                    
__________________________________________________________________________________________________
dropout_23 (Dropout)            (None, 128)          0           batch_normalization_40[0][0]     
__________________________________________________________________________________________________
dense_2 (Dense)                 (None, 10)           1290        dropout_23[0][0]                 
==================================================================================================
Total params: 28,459
Trainable params: 26,955
Non-trainable params: 1,504
__________________________________________________________________________________________________
Epoch 1/81

 128/9790 [..............................] - ETA: 50:07 - loss: 3.1270 - acc: 0.1016
…
